online_iceocean/CNN_weights/NetworkA_weights_1982-2017_P2.pt (torch, 394591 bytes, 4 tensors)

conv_net.C1.weight f4 [32, 17, 3, 3]
000000 bc 4c ba bd c0 68 8e bd 63 bb fc bd ff e2 1b 3d
       -0.09096667 -0.06953573 -0.12340429 0.038058277
000010 d4 cd 67 bd 47 03 c6 3d 54 75 02 3e 78 3d e8 3d
       -0.056592777 0.09668594 0.1274007 0.11339849
000020 55 0e 0d 3e 67 72 0f bb e5 38 d5 3d 60 d4 66 bd
       0.13774998 -0.0021888257 0.104112424 -0.05635488
000030 3a 02 05 3c be ea 0b bd e8 59 7a 3d d8 55 04 3e
       0.008118207 -0.034159414 0.061120898 0.12923372
000040 72 aa d5 bd 8b b0 12 3c 43 4c 34 3e 03 0d 30 3e
       -0.104329005 0.008953224 0.17607217 0.17192464
000050 63 61 5d 3d e6 00 c9 3c e3 fd 5f 3e e5 0d a0 3d
       0.054047953 0.024536561 0.21874194 0.0781515
000060 e4 20 58 3d 30 8c 3d 3d c8 52 ab 3c f1 d9 28 be
       0.052765742 0.04627627 0.020913497 -0.16489388
000070 19 e4 df 3d fc 7d 1e 3d 56 88 c8 3e 12 de 8c 3e
       0.10932178 0.038694367 0.39166516 0.27513176
000080 fc 8c e1 3d f0 2a 60 3e ce a3 6e 3e 76 0a 56 3c
       0.11013219 0.2189138 0.23304674 0.0130640175
000090 da d9 bd bd 6d c5 75 3d 2c eb 9c 3c da 8c d7 bd
       -0.092700675 0.060002733 0.019155107 -0.10524912
0000a0 f0 76 b7 3d 99 43 db 3c 59 b3 c9 bd 12 70 05 bc
       0.089582324 0.026765632 -0.09848661 -0.008144395
0000b0 3d 40 d0 3d 40 2e 7d bd 3c 3d a7 bd 03 03 e6 3d
       0.101685025 -0.061811686 -0.081659764 0.11231043
0000c0 86 eb 4b bd 3e 95 03 bc 39 ba 26 3e ef 60 00 be
       -0.04978516 -0.008031188 0.16281976 -0.12536977
0000d0 46 85 79 bc 9f ce 9c 3d 6f d1 86 3c 6c 15 2c be
       -0.015229529 0.07656597 0.016457288 -0.16805047
0000e0 c0 aa 1d bc a9 ee ae 3c cb fe 98 3d 9f d5 ef 3d
       -0.0096232295 0.021354036 0.07470473 0.11710667
0000f0 f3 2d 6c 3d 09 26 ff 3d d8 32 d2 3d eb 01 f2 bd
       0.057661008 0.124584265 0.10263604 -0.11816772
000100 0c fd 4b be 6a 0d 54 bb 9d 7c 1e 3d e9 0c 03 3c
       -0.19920748 -0.0032356628 0.03869306 0.0079986835
000110 4a 87 78 3c fb 3a d1 3d 9d b3 30 3e 13 25 f9 3d
       0.015168974 0.10216328 0.17256017 0.121652745
000120 8e 74 1d be 4c d9 1e 3d 10 89 c0 3d 2d ac 3e bc
       -0.15376493 0.03878145 0.094011426 -0.01163773
000130 5f 3f 08 3e b3 01 1b 3e 80 16 68 be d7 32 91 3d
       0.13305424 0.15137367 -0.22664833 0.07089775
000140 fa 18 87 bc ab d4 2b bd 9a 97 62 3d 54 2c 84 bc
       -0.016491402 -0.041950863 0.05532036 -0.016134419
000150 43 42 7b bc 4b 69 8c 3d 6c 38 bc 3c 3c 09 f7 3c
       -0.015335622 0.068560205 0.022976123 0.03015577
000160 44 9e c2 ba 04 2f 5c bd 54 2c 16 3d 05 a0 3a bd
       -0.0014848192 -0.053755775 0.03666337 -0.045562763
000170 19 31 e7 bb 0b aa 91 3d 1b 81 cd bd f4 b6 9d 3d
       -0.0070554134 0.07112511 -0.100343905 0.07700911
000180 e7 87 ea bd 4e 22 bc bd d8 41 3a 3c 74 8b 67 3d
       -0.114517026 -0.091862306 0.011368237 0.056529477
000190 cf 56 f1 3c db 56 33 bb 33 d3 3f 3c 5a e2 e5 bd
       0.029460339 -0.0027365002 0.011708069 -0.11224814
0001a0 94 b4 e4 bc 4e 8a 8d bc fc ea d5 bd f5 10 18 3d
       -0.027918138 -0.017277863 -0.1044521 0.037125546
0001b0 d3 3a c9 bd aa d7 c8 bd c4 99 3b be 1b 62 f6 bb
       -0.09825673 -0.0980676 -0.18320376 -0.0075190193
0001c0 b6 19 f7 bc d6 8e 8a 3b 22 e7 b1 3d 4c bb 2c bc
       -0.030163627 0.004228453 0.08686663 -0.010542702
0001d0 fe ea 2a 3d 3e 1b 13 3c a7 e0 78 bd 4a 53 89 3d
       0.041728012 0.008978663 -0.06076112 0.06705339
0001e0 5b 33 76 3d a2 59 0a bd 14 55 9f 3a fa f5 e4 3c
       0.06010757 -0.033776887 0.0012156093 0.027949322
0001f0 ca 58 6e bc 27 43 ba 3c dd 64 b8 3d 13 85 cb 3d
       -0.014547536 0.022737099 0.09003613 0.09937491
000200 36 48 1a bc 43 0f 97 bc 9e 6c 1d 3e 41 1e 56 3b
       -0.0094166305 -0.018439895 0.15373465 0.0032671841
000210 04 13 ea bc 81 33 d5 bd 8f 7a 5c be 68 6a 3f 3c
       -0.02857352 -0.10410214 -0.21531127 0.011683084
000220 10 61 ef 3c 3f e6 1b bd f3 0a 8a bd aa e3 65 3d
       0.029221088 -0.038061377 -0.0674037 0.05612532
000230 ee 2b 97 bc fa a6 1d 3d c0 98 b2 bd 7f 52 6f bc
       -0.018453564 0.03848932 -0.08720541 -0.014607071
000240 be 9a 0d 3d 6b 7d 85 bd ae 60 c0 3d bb 53 4c 3e
       0.0345714 -0.06518062 0.0939344 0.19953816
000250 76 cb fd bd 12 4c 8c 3d da 62 04 3d 41 da 6e 3c
       -0.12392323 0.06850447 0.032320835 0.014578403
000260 01 47 9d 3c 43 49 06 3c 6b 2c a9 3a c1 c5 fb bd
       0.019198896 0.008196178 0.0012906914 -0.12293578
000270 ab 02 8d 3e 7b 46 04 3f 21 a1 eb 3d 33 a1 91 3d
       0.27541098 0.51670045 0.11505342 0.071108244
000280 0f f2 02 bc cb 36 67 bd 1b 7e cc 3c 50 ad 98 bb
       -0.007992282 -0.05644874 0.024962476 -0.0046593323
000290 aa 52 89 3c c7 ee 7f bc 28 30 30 3e fa e7 2e bd
       0.01676305 -0.015620894 0.1720587 -0.0427017
0002a0 9c 71 36 3c 4f 2c 27 bd b1 49 85 39 96 ac 9d bd
       0.011135485 -0.04081374 0.0002542264 -0.07698934
0002b0 8d 0a 55 bd d0 c6 59 be 21 a9 7d 3d 7d 0d 72 be
       -0.052012015 -0.21267247 0.061928872 -0.23637958
0002c0 a4 31 08 be 7e 99 72 3d a9 80 8a be 64 48 0e be
       -0.13300186 0.059228413 -0.27051285 -0.13894802
0002d0 60 54 a0 bc 29 4c 4c bc f3 32 8d bc 57 15 72 3d
       -0.019571483 -0.01246933 -0.017236209 0.059102383
0002e0 1c cd 68 3d ff b9 54 bd 27 ba e3 bc 6b e9 22 3d
       0.056836233 -0.051935192 -0.027798725 0.039773386
0002f0 91 62 32 bd dc 63 ce be 77 3d 83 3c d7 bf 06 3e
       -0.04355103 -0.40310562 0.01602052 0.13159119
000300 ff c0 9d be b8 93 e8 bb 56 75 bd 3e 52 d2 06 be
       -0.30811307 -0.0070976876 0.37003583 -0.13166168
000310 60 f0 6d bc 32 55 74 3e 15 dc 10 be ca de 7a 3c
       -0.014522642 0.23860624 -0.14146455 0.015311906
000320 f4 96 b0 3d 6c 8f 96 bd 99 78 3c bc da 74 17 3e
       0.08622542 -0.07351574 -0.011503362 0.14790669
000330 5c 54 1a bd 73 4e c7 bc 0b 8a bf 3c b2 82 86 be
       -0.037678108 -0.0243294 0.023381254 -0.26271588
000340 df 07 53 be 2c 07 7d be 33 b4 1d 3d d2 38 b3 3c
       -0.20608471 -0.24709767 0.03850193 0.02187768
000350 e8 79 02 be e6 b1 a3 3e 7b 93 76 3e 2f 71 32 3e
       -0.12741816 0.31971663 0.24079697 0.17425989
000360 2b eb 28 bd ea 2b 1d be 5d 2d 83 bd 40 a4 ac bb
       -0.0412399 -0.15348783 -0.06405137 -0.0052686036
000370 2c 21 83 bd 48 9b 91 bc b8 a7 9c 3d 7f 47 c5 3d
       -0.064028114 -0.01777424 0.07649177 0.096327774
000380 83 d2 d6 3d d6 6c 58 3c 5e 7b 02 3d b8 03 9e bd
       0.10489371 0.013209542 0.031855933 -0.07715553
000390 b3 c7 ca 3c 87 7f 64 3c 14 04 06 3d 45 0f c4 bd
       0.024753427 0.0139464205 0.032718733 -0.09573225
0003a0 b1 3a f2 bd f0 90 81 bb be a9 60 bd 0f 03 29 3c
       -0.11827601 -0.0039540455 -0.05484938 0.010315671
0003b0 22 7a 13 bd 51 9c 3b 3c bc 92 2f bd 57 4d b4 3b
       -0.036005147 0.011450843 -0.042864546 0.0055023837
0003c0 2f 30 df bc fc 04 d8 3c 00 81 2b bd 5e 33 02 bd
       -0.027244655 0.026369564 -0.04187107 -0.03178727
0003d0 3d 6c be bc 1e 8a 88 3d 34 2f c0 3c df be 3d be
       -0.023244971 0.06666969 0.023460008 -0.18529843
0003e0 72 fd 1d bd d9 40 58 3d 52 56 4f 3e 05 2f a5 bd
       -0.038571782 0.05279622 0.20247772 -0.08065609
0003f0 7e 83 4e 3d 11 5c 79 bd c8 53 00 3d 9b 59 06 bd
       0.05041837 -0.060878817 0.0313299 -0.0328003

conv_net.C2.weight f4 [64, 32, 3, 3]
000000 7b e0 b6 3c f1 97 29 bd e9 e6 df 39 ca b6 42 bd
       0.022323838 -0.04140467 0.00042705916 -0.047537602
000010 5d 05 2e 3c 39 20 4e 3b a6 fb 1e 3d 6c f1 0c bc
       0.010621396 0.0031452312 0.03881421 -0.008602481
000020 46 a5 98 3c f3 46 da bc 7c d2 cf bc 1b 7c 9d bc
       0.018633496 -0.02664516 -0.025368921 -0.019224217
000030 27 95 21 bd 56 28 b8 3c ab fc b8 3d d2 15 57 3d
       -0.039448883 0.022480171 0.090325676 0.052511044
000040 09 57 cd 3d 94 df 08 3d 2a a6 e4 bc 51 b3 ce bd
       0.10026366 0.033416346 -0.027911264 -0.10092796
000050 f4 ef c9 bd e6 0a f7 3d 5a e9 b9 3c 13 40 a0 3c
       -0.098602206 0.120626256 0.022694279 0.019561803
000060 e7 fc 02 bd 22 eb eb bd e6 1a 56 be e4 9f b6 bc
       -0.031979468 -0.115194574 -0.20908698 -0.022293039
000070 41 3f 10 be c7 e3 ee bd ae e4 b8 bd 90 fc 1b 3e
       -0.1408663 -0.11664539 -0.09027992 0.15233064
000080 1c c3 2b 3e c4 b8 45 be 7e 4e 1d 3e 21 1e 1e 3e
       0.16773647 -0.19308764 0.15361974 0.15441181
000090 4f 2b 28 bd 29 0d a0 bc ec 27 43 bd e0 9a a6 bb
       -0.041056927 -0.019537525 -0.047645494 -0.0050843805
0000a0 40 28 47 bc c5 fe 42 bd 79 fd 1b bc 17 6e c5 bc
       -0.012155592 -0.04760625 -0.009520882 -0.024100346
0000b0 75 3f bb bc 4c 69 29 3d 49 e9 17 3c 04 a9 f4 bd
       -0.022857407 0.041360185 0.009271928 -0.119463
0000c0 b2 94 27 39 1a f6 6d 3d 88 23 59 bd e8 9b 4c 3d
       0.00015981754 0.05809603 -0.0530124 0.04995337
0000d0 1f 1f 74 bd 26 69 e1 bd 70 b9 96 3d 75 2b e0 bc
       -0.059599992 -0.110063836 0.07359588 -0.027364472
0000e0 27 7e 50 3d 6c 46 85 3d be 3e b5 3d a5 bb 9e 3b
       0.05090156 0.065075725 0.08849858 0.0048441463
0000f0 4b 68 51 3d 5d 37 de bc 7b d5 2f be bd e9 d1 3d
       0.051124852 -0.027126009 -0.1717128 0.1024966
000100 59 5d 01 be 4c c8 4b be 08 ec ff bc 12 d8 45 bd
       -0.12633266 -0.19900626 -0.031240478 -0.048301764
000110 f2 ed 0f bd f3 1a f1 bc be 46 51 3d 3a 37 08 bc
       -0.03513903 -0.029431796 0.051092856 -0.008313948
000120 1f c3 83 3d 98 9c 56 bd 5f 94 14 be 40 43 ee 3d
       0.06433701 -0.052395433 -0.14509724 0.11633921
000130 c7 cd 83 3b 6b 19 c5 bc 6c 8a 7f 3e 6c ef a8 3d
       0.0040223333 -0.024059972 0.24955148 0.08248791
000140 a7 75 c1 bc 22 b5 c7 bc 57 21 aa bd dd 0e 8f bd
       -0.023615671 -0.024378363 -0.0830714 -0.06985257
000150 21 24 48 bc 01 5f 85 3d 0d 88 81 3d 00 db 5f bc
       -0.012215645 0.06512261 0.06324778 -0.0136630535
000160 95 b2 8f 3d 18 b7 0c bd 61 b9 98 3c b0 99 4c 3d
       0.07016484 -0.0343543 0.018643083 0.049951255
000170 ab 06 fe 3d 4f 0a 6b bd 1f e1 3e ba e2 04 07 bb
       0.124036156 -0.057382878 -0.00072814705 -0.0020602276
000180 21 d5 68 bd 81 85 7e bc 4f 0f 6c bd 76 d8 97 bd
       -0.05684388 -0.0155347595 -0.057631787 -0.074143335
000190 3e 89 95 3c d3 b9 ff 3d 09 0b 4f 3d 02 cf 93 3d
       0.018253919 0.12486615 0.050547633 0.07217218
0001a0 65 71 fb 3c c8 55 a2 3c 60 83 c7 3c e1 52 b5 bc
       0.03069372 0.019816294 0.024354637 -0.022134246
0001b0 21 6b a2 3c 4c bd 8f bc 35 d3 0c bd 30 4d fa 3c
       0.019826474 -0.017546318 -0.03438111 0.030554384
0001c0 73 5c 3d bc f1 55 bf 3d a9 71 90 bd a0 dc 95 3c
       -0.011557686 0.09342564 -0.07052929 0.018293679
0001d0 de bc be bc 6a 13 1d be f5 63 b8 3c a1 5d 17 3e
       -0.023283418 -0.15339437 0.0225086 0.1478181
0001e0 48 f5 11 be 2e 88 92 bd 0d 94 23 3e 1d 8b 37 3d
       -0.14253724 -0.071548805 0.15974446 0.044810403
0001f0 34 3d e9 bd 9b 3c 35 3d 1a da 9b 3d db a6 bd 3c
       -0.11388627 0.04424725 0.07609959 0.023150852
000200 91 a7 93 3d d5 0d 1b bd bc 06 e2 bd 05 86 a5 3c
       0.07209695 -0.037854988 -0.11036441 0.020205507
000210 78 f6 ff bd cf 36 c5 bd 26 4a 5f bd 22 6e 93 3d
       -0.12498182 -0.096295945 -0.054514073 0.071987405
000220 ca f0 ac 3d 18 e4 38 3e fb f4 89 3d 80 6a 0c bd
       0.08444364 0.18055761 0.067361794 -0.034281254
000230 ac 12 80 3c be 35 07 bd 02 8a 50 be 1e 3e 3f be
       0.015633903 -0.033010237 -0.20365146 -0.1867604
000240 4f 16 df 3c 06 16 7e bd 1c 2e 92 bc a4 5e 05 bd
       0.027232317 -0.062032722 -0.017844252 -0.03256096
000250 1a ff ce bd c1 f2 8e bc b9 f6 de 3d 78 95 43 bd
       -0.101072505 -0.017449738 0.10886902 -0.047749966
000260 a5 d8 3c 3d 4e 5c 04 be b5 a4 93 bd 0e f3 19 bd
       0.046105046 -0.12925836 -0.0720915 -0.03758531
000270 36 f9 ba bb 35 2e 29 3d aa df db bc 70 73 2c 3b
       -0.005705978 0.041303832 -0.02684005 0.0026313923
000280 ff b1 31 3b c8 f8 1a 3c e8 c2 b0 bd ed 35 60 bc
       0.002711415 0.009458728 -0.086309254 -0.013684732
000290 ed 69 bc 3c 06 00 36 ba d8 96 40 bd e6 dc 39 bd
       0.022999728 -0.00069427525 -0.047018856 -0.04537668
0002a0 60 9b c8 bc f2 f9 a4 bd bc 13 61 bd 98 f1 9a 3d
       -0.024488151 -0.08055486 -0.05495046 0.075656116
0002b0 10 cc 08 bd fe 7d 24 bd 17 6a b3 3d 59 88 57 3d
       -0.033397734 -0.040159218 0.087604694 0.052620266
0002c0 94 8e 76 bd c0 40 31 bb 72 30 29 3d c8 6d 85 bd
       -0.060194567 -0.002704665 0.041305967 -0.0651508
0002d0 b7 ae 51 3e 47 32 39 3e cf 53 e2 3d a5 b0 44 3d
       0.20476805 0.18085586 0.110511415 0.048020024
0002e0 fc 53 4c bc 83 0d 2b be 47 4f 38 bc b3 54 ca bd
       -0.012471195 -0.16704373 -0.01124937 -0.09879436
0002f0 4e 47 60 be 09 6c 36 3d b5 e7 82 3c df 27 ee 3c
       -0.219022 0.044536624 0.015979627 0.029071746
000300 ed 07 1f bd 25 41 61 3c 04 71 80 3d 66 da 29 3d
       -0.038825918 0.013748442 0.06271556 0.041468047
000310 cf da cb 3c 66 9f dc bc c7 ce 60 bd 3d ec 6f bd
       0.02488461 -0.026931476 -0.0548847 -0.058574904
000320 d5 6e b0 bd f6 e3 4f bc 79 44 98 bd 55 ec 77 3c
       -0.086148895 -0.0126886275 -0.07434935 0.01513203
000330 cb 4c 7d 3d aa 25 e9 bc dd 3b b7 3b 04 60 94 bd
       0.061840814 -0.028460342 0.005591853 -0.07244876
000340 f6 2f 0b be 85 68 00 be b6 22 7e bd e3 62 bc bd
       -0.13592514 -0.12539871 -0.06204482 -0.09198549
000350 a0 c8 82 bd 4c 54 b1 3d 79 f6 93 3d 47 67 14 3e
       -0.063859224 0.086586565 0.07224745 0.14492522
000360 38 7a e3 3b 46 b9 35 3c 13 bb ee 3b bc f2 97 3c
       0.00694206 0.011091536 0.0072854846 0.018548362
000370 aa 59 83 3d 00 69 00 3d 00 c1 35 3d b1 66 9b bc
       0.064135864 0.031350136 0.044373512 -0.018969866
000380 ce eb 88 bd 70 64 60 bc 9f f1 2c bb e3 c2 1b bd
       -0.06685601 -0.013695821 -0.0026389135 -0.038027655
000390 8e 30 0f ba bd f1 49 3d 7f 63 a1 3d 42 ba a3 3c
       -0.00054622523 0.049302805 0.078803055 0.019986276
0003a0 ee 32 2a 3c 2a 52 52 3d 60 b3 91 bd a0 cd aa 3c
       0.010388119 0.05134789 -0.07114291 0.020850003
0003b0 24 81 8a 3c e6 d2 e1 3b af 56 0b bd 00 b0 b0 3c
       0.016907282 0.006891596 -0.034018215 0.021568298
0003c0 a4 8d 32 3c e9 68 f3 3d 79 9d c2 bc 71 a6 a9 3c
       0.010898028 0.118852444 -0.02375673 0.020709248
0003d0 4a 04 19 bc f0 43 88 3c 66 90 11 bd d1 94 af bc
       -0.0093394015 0.016633958 -0.0355381 -0.021433266
0003e0 ed 2d 04 3c ea 40 a8 bc 99 eb b9 3c 27 7d 50 3d
       0.00806759 -0.020538766 0.02269535 0.050900605
0003f0 0c fd 8c bc 9c 04 63 bb 87 ac 0f be 8f 4f 25 bd
       -0.017210506 -0.0034640199 -0.14030658 -0.040359076

conv_net.C3.weight f4 [128, 64, 3, 3]
000000 a4 fd 5b bd 38 41 3b be 9f 80 22 bc de d3 99 3c
       -0.053708687 -0.18286598 -0.009918361 0.018777784
000010 c5 f3 18 bd 81 49 0d 3d e7 a2 eb 3c aa 08 88 bb
       -0.03734185 0.034493927 0.028764201 -0.0041514235
000020 0d 8e 2a 3d 15 d4 44 3c 1b f5 b1 3a 2e 37 2c 3c
       0.041639376 0.012013455 0.0013577075 0.010511203
000030 1a ed 83 bd b7 1e 6b bd af cf a8 bc 96 a9 33 bd
       -0.06441708 -0.05740234 -0.020606844 -0.0438629
000040 c0 8c 77 bd e8 00 27 bd bd 08 1b bd 25 82 00 bd
       -0.060436964 -0.04077235 -0.03785013 -0.031374115
000050 5d 9c f8 bc 81 a1 ca bd 43 41 06 be 69 92 7d 3c
       -0.030347997 -0.09894086 -0.13110833 0.015476801
000060 ce c8 2e bd 6f 08 99 bc c8 82 28 3d 09 2c 45 bd
       -0.04267197 -0.01868078 0.041140348 -0.0481377
000070 5a 8c 3c bc 6d 2d 39 3b b5 ba ba bc 8d 7d 87 bd
       -0.011508072 0.0028255836 -0.022794107 -0.06615744
000080 47 e8 4b bc d0 86 9f bc 41 17 eb 3c fa 33 48 3d
       -0.012445516 -0.019473463 0.028697612 0.048877694
000090 e2 9b 2f 3c ad ef 09 bd a7 36 b6 3d 4a ef 84 bd
       0.010718318 -0.03367584 0.08897143 -0.06490953
0000a0 76 da 05 be b2 1e 36 bd 8e 69 a1 bc a7 d9 c0 3c
       -0.13071617 -0.044462867 -0.019703653 0.023541285
0000b0 0c af e8 bc 70 2e 8c bd 5d c9 f3 3c 0b 12 d0 3c
       -0.028403781 -0.06844795 0.029759103 0.025399229
0000c0 b8 6b ac 3c 1d dd 31 3d a9 9c 2b 3d 95 62 92 bc
       0.021047458 0.04342376 0.04189745 -0.017869273
0000d0 d3 30 19 3c 4c 2f 6d 3d 63 6a cf 3b f3 8d 34 bc
       0.0093500195 0.057906434 0.006329821 -0.011020171
0000e0 95 0c 07 3d e7 58 0a 3d f1 c8 73 3c 8f 49 c3 3c
       0.032970984 0.03377619 0.014879451 0.023838786
0000f0 9e 97 42 3d c1 82 66 bd 0a cb aa bd 40 f5 34 3d
       0.047507875 -0.05627704 -0.08339508 0.0441792
000100 00 53 11 3c 4d 95 82 bc 82 8f 4b 3c 88 a9 be bc
       0.008869886 -0.015940333 0.012424352 -0.023274198
000110 f8 f9 cb bc 83 9c a8 3d f7 e0 01 3d af 59 b6 bd
       -0.024899468 0.08232977 0.031708684 -0.089038245
000120 34 2f c9 bc 0e f9 86 bb e7 a9 02 be 3e 6d 83 bc
       -0.024558641 -0.004119045 -0.12760125 -0.016043302
000130 43 a7 06 ba 13 02 ee bb 09 49 9c bd b3 e0 79 bd
       -0.0005136618 -0.007263431 -0.07631118 -0.061005305
000140 c8 33 c3 3c 23 45 84 bc 43 df b4 bd db cf 2f 3c
       0.023828402 -0.016146248 -0.08831646 0.010730709
000150 b9 46 09 bd 0e 06 96 be 05 60 92 bc 68 e3 5c bd
       -0.033514712 -0.29301494 -0.017868051 -0.05392781
000160 ed 72 d8 3d 1e ad a1 3b 10 42 e2 3c e2 1b e7 3c
       0.10568795 0.0049339673 0.027619392 0.028211538
000170 42 0c 58 bc 83 09 2f 3c 03 51 ac bd 4d 74 ee 3c
       -0.013186516 0.01068342 -0.08413889 0.02910819
000180 58 c6 0a bd 3d ae 96 bd c8 dc ee 3d 59 5d 0a bc
       -0.03388056 -0.07357452 0.116632044 -0.008445107
000190 5a 18 8d 3b 7f 86 a7 bc 3f 0b 5e 3c 62 bb 1c 3d
       0.0043058814 -0.020449875 0.013552486 0.03826464
0001a0 38 90 97 ba d9 15 36 bc f1 fb ee bb 19 85 00 bd
       -0.0011563366 -0.011113607 -0.0072932173 -0.03137693
0001b0 d2 05 93 bd 85 8a 90 bc 06 55 8d 3b ec 52 e2 bd
       -0.071788445 -0.017644176 0.004313114 -0.11050972
0001c0 8f 8c 0a 3d 1d d7 bc bd ef 6d 4e bd 7d 6f 92 bc
       0.033825453 -0.09220717 -0.05039781 -0.017875427
0001d0 42 7d 98 bc 1a 6a ab 3d b1 9b 96 3d 9c 4b bd 3c
       -0.018614415 0.08369847 0.073539145 0.023107342
0001e0 50 46 29 bd af 07 bb bd 1d 2a 56 3b fb af 0c bd
       -0.04132682 -0.09132325 0.003267891 -0.034347516
0001f0 ac 72 52 3c a1 34 0b bd 9e 36 9a bd 05 e8 8e bd
       0.012844723 -0.033985738 -0.07529949 -0.06977848
000200 23 12 0d bc eb 49 a1 bd 2f ee d8 bc 19 a9 dd 3d
       -0.008610281 -0.07875427 -0.026480762 0.108232684
000210 b7 4e 47 3c 9e a8 86 3c 6e a1 60 bd d0 12 8b 3d
       0.012164763 0.016437825 -0.05484145 0.067906976
000220 38 d4 0a 3d 3d 4d 89 bc ee 88 8e 3b ca f1 fb bc
       0.033893794 -0.016760463 0.0043498194 -0.030754942
000230 2c c1 a6 bc 00 21 82 bd dd da a4 bd b1 de 76 bd
       -0.020355783 -0.063539505 -0.08049557 -0.06027097
000240 27 a1 19 bd 00 8c 75 3c 2b eb 93 bc 39 4d c3 bd
       -0.037507202 0.014986992 -0.018056473 -0.095362134
000250 b7 15 a3 bc 8d d5 f3 bd 96 9b ed 3c 74 00 78 3d
       -0.019907815 -0.11905966 0.029004853 0.060547307
000260 a7 6c a1 bd e5 8e 27 3b b3 7a c2 bb f5 71 13 bd
       -0.07882052 0.002556735 -0.005935037 -0.03599735
000270 6c 6d d3 bb 3f 17 ef 3c d4 ee 6a bd 10 dd 77 bd
       -0.006452253 0.02918589 -0.05735667 -0.060513556
000280 9f 97 bf bc ff e6 1e bd 99 ae 93 bc 18 e1 61 b6
       -0.023387728 -0.038794514 -0.01802759 -3.3658634e-06
000290 02 54 69 bd bc 23 77 bd 05 fd 2e bd d2 78 0e bd
       -0.05696488 -0.060336813 -0.042721767 -0.034783192
0002a0 7d 4d 3d bc ae fe 8c bc 6a f3 99 bd 13 e7 3f 3d
       -0.011554119 -0.017211284 -0.07517131 0.04685123
0002b0 ab 72 28 bd 87 fd 5e bd fe 09 34 3c da 57 0b bd
       -0.04112498 -0.054441 0.01098871 -0.03401933
0002c0 a0 5c a3 bc 00 d1 d3 bd 52 0d ba bd 23 d9 99 3c
       -0.019941628 -0.10342598 -0.09084572 0.018780297
0002d0 19 7f 97 3c fa 0e 64 3c 11 35 de ba 28 fe 2a bd
       0.018493222 0.013919586 -0.0016953071 -0.04174629
0002e0 01 1c 03 bd 8e ae 01 3d 60 f5 0b 3d 22 f4 8b bc
       -0.03200913 0.03166061 0.034169555 -0.017084185
0002f0 99 26 84 bc 74 0a b8 bc b5 1e 89 bd 98 1b 6a bd
       -0.016131686 -0.022465922 -0.0669531 -0.05715522
000300 f1 4c ba 3c fb ee 05 3e 70 2c 89 3d 08 05 18 3d
       0.022741767 0.13079445 0.06697929 0.037114173
000310 17 56 9c 3c 92 eb ff 3b cf b7 54 3d 3d 48 91 3c
       0.01908402 0.0078100646 0.051933106 0.017734641
000320 8b b5 84 bd ab 9b a2 3d e5 38 a1 bc ed 8f f5 3c
       -0.06479939 0.079398476 -0.01968045 0.029975856
000330 0b 53 0e 3d 75 f5 1c bc 0e 82 32 bc 62 02 a6 bd
       0.034747165 -0.009580006 -0.010895265 -0.08105923
000340 c3 fd 64 bd 66 7d 74 bd af a7 2e bd aa 83 2b bd
       -0.05590607 -0.0596899 -0.042640384 -0.04187361
000350 14 4e 5c bd a0 9a ba bc 14 18 06 bd d4 08 92 3c
       -0.0537854 -0.02277881 -0.032737806 0.017826475
000360 29 15 f0 3d 84 54 ac bc f6 69 08 bd b9 16 6e 3c
       0.11722786 -0.021036394 -0.033304177 0.014531785
000370 be 88 b8 bd 78 f3 ae 3c c1 b0 00 be 73 cd ab bc
       -0.090104565 0.02135633 -0.12567426 -0.02097199
000380 e6 04 74 3d d6 4c 92 3d 16 a6 7a 3d 3b 65 06 bc
       0.059574984 0.071435615 0.06119355 -0.008202846
000390 a1 d9 e4 3d 0b 98 cd bb 29 f1 a5 bd 39 0e 08 bd
       0.11174322 -0.0062742284 -0.08102638 -0.03321669
0003a0 af e3 ca bc b1 67 34 be be dd 4b bd 57 04 93 3d
       -0.024766771 -0.1761768 -0.049772017 0.07178562
0003b0 9d 87 9b 3d a9 29 7a bd 03 31 a3 bc c9 cd 1b bd
       0.075942256 -0.061074886 -0.019920832 -0.03803805
0003c0 8b 0b a3 3b 41 09 e8 bc cf 56 18 3d d5 93 60 3c
       0.0049757413 -0.028324725 0.037192162 0.013707121
0003d0 83 d0 fc bc 93 1e bd bd 5c dc 4e 3d cf 74 be bd
       -0.030861145 -0.09234347 0.05050312 -0.09299623
0003e0 83 61 e2 bc 22 f6 f6 bd 1d 1d 0e be 68 37 b1 bd
       -0.027634388 -0.12058665 -0.13878293 -0.08653146
0003f0 b3 d4 b8 3d 4f 4f c1 3d 38 a1 54 3d 32 61 3b 3d
       0.09024944 0.09438955 0.051911563 0.04574699

conv_net.C4.weight f4 [1, 128, 3, 3]
000000 88 ec 33 bc 5c 4d 3a bc 13 a2 6a bd 8b ab 90 bb
       -0.010981686 -0.011370983 -0.057283472 -0.0044149808
000010 55 5d 05 be ca 71 42 bd 57 69 16 bd 4d ab 9c bd
       -0.13023885 -0.0474718 -0.036721554 -0.076498605
000020 a7 57 a6 bc 4c 98 01 3c 4c b4 66 bc 68 e8 02 be
       -0.020305468 0.007909846 -0.014081072 -0.12783968
000030 43 a0 8d 3c d6 94 3e bc 9b 79 ed bc 1c 33 fd 3c
       0.017288333 -0.011632165 -0.02898865 0.03090816
000040 85 6b 0c 3c 2e 6b a0 bb b9 c6 d2 3d 14 d8 7d bc
       0.0085705565 -0.0048955893 0.102918096 -0.015493412
000050 2e 1c 7a bc 07 f8 0e bd 7b 84 b0 bc 70 d2 1a bc
       -0.015265508 -0.034904506 -0.021547547 -0.009449586
000060 5b 14 b6 bb a8 55 b1 bb 62 f6 13 ba d5 f2 80 bd
       -0.005556626 -0.0054118223 -0.0005644319 -0.062963165
000070 3e 37 31 3d 89 0c 01 3d 35 3b a2 bd 1c f6 ca bc
       0.043265574 0.031506095 -0.07921449 -0.024775557
000080 4c f7 9b 3d 2b 28 72 bd 31 0f f1 3c 6a 49 1a 3d
       0.076155275 -0.05912034 0.02942619 0.03766767
000090 75 2b a4 3c 62 29 be 3c a5 83 c6 3c 15 3e 23 3c
       0.020040253 0.023213092 0.024232695 0.009963532
0000a0 70 15 c0 3c e5 6d c8 3c 0c c5 ae 3c 6d 1e ad 3c
       0.023447722 0.024466464 0.021334194 0.021132672
0000b0 1e c8 06 3d f7 b2 5a bc a5 67 9e bc 7e 8c 87 bc
       0.03290569 -0.013348333 -0.019336531 -0.016546484
0000c0 3a 0c e0 bc c5 cc 0e bd b0 ed 32 bd 4e 3a 09 bd
       -0.02734958 -0.034863252 -0.043683708 -0.03350287
0000d0 7e 84 82 bd 9f 2f a3 bd ac 72 97 bc 01 cc 13 bd
       -0.06372927 -0.079680674 -0.018487297 -0.036083225
0000e0 36 18 e0 bc 32 ec 2f bc 4e 5f fa bc dd cf 80 bc
       -0.027355295 -0.010737466 -0.030563023 -0.015724117
0000f0 ef a1 4d bc cd 24 ff bc bc f9 b9 bc 20 04 29 3b
       -0.012550815 -0.031145478 -0.02270209 0.0025789812
000100 99 f0 1e bc a7 df e8 3c d3 91 4a 3c fa 26 c9 bb
       -0.009700918 0.028426958 0.012363869 -0.0061386796
000110 1d 9f a5 3d 8a ec 90 3c 00 ef 2d 3e 4a ef e6 3d
       0.08086989 0.017690916 0.16985703 0.112761095
000120 72 5a aa bc b3 3b b1 bc 68 c0 7e bc ee 64 b7 bc
       -0.02079508 -0.021634912 -0.015548803 -0.022386994
000130 94 a3 57 3e ef 66 e3 bb c4 74 e1 bb e3 c7 d2 bc
       0.21058494 -0.006939761 -0.0068803746 -0.025730079
000140 85 77 e3 bb 4c ab 0c 3e a2 f5 35 3e 9c aa 7e 3d
       -0.006941738 0.1373722 0.17769483 0.062174425
000150 fb 2e f6 bb e8 b7 c5 3b 12 11 63 3b 01 5a fb b9
       -0.0075129247 0.006033886 0.0034647626 -0.0004794151
000160 f1 57 f8 39 11 ea 96 39 d6 2b a8 3b 9e 42 6e 3d
       0.00047367768 0.00028784623 0.005132179 0.058169
000170 2d 8a 82 3d 25 57 cb bc e8 5c d0 3b 52 7f 42 3d
       0.06374011 -0.024821827 0.0063587315 0.047484703
000180 c5 35 88 bd 4d f7 62 bd f8 00 8f bc 4e ec 8d bb
       -0.06650881 -0.055411626 -0.017456517 -0.004331148
000190 f5 2e 28 bb ae 71 49 bb a8 ec 56 3b e2 b8 51 bc
       -0.0025662754 -0.0030737924 0.0032794867 -0.012800427
0001a0 b2 2a b4 bb 93 23 d9 3c 1f 1c 37 3d 52 70 4d 3e
       -0.0054982537 0.02650622 0.044704553 0.20062378
0001b0 11 30 b9 03 5e 71 be 03 25 82 c9 03 97 55 b1 03
       1.0884358e-36 1.1193224e-36 1.1843598e-36 1.04227755e-36
0001c0 ab bb b5 03 05 5f bd 03 cb 74 a7 03 59 8e ab 03
       1.068131e-36 1.1130237e-36 9.842192e-37 1.0083158e-36
0001d0 3f ee b1 03 98 70 06 bd 1f 3a c8 bc 63 d3 16 38
       1.0457824e-36 -0.03282222 -0.024441777 3.5959656e-05
0001e0 ae a3 9e bc ac 43 43 be f5 d1 58 3b a5 46 43 bc
       -0.019365158 -0.19068784 0.0033084129 -0.011918698
0001f0 d2 dd 13 3c 8d a4 3d bb f9 9e 1b bd 35 05 3c bc
       0.009025054 -0.0028937191 -0.037993405 -0.011475851
000200 bc 2e d4 bc af d6 42 bd 9d 74 e6 bc 82 93 02 bd
       -0.025901191 -0.04756802 -0.028131777 -0.031878956
000210 62 e2 a1 bd aa d7 0f bd a7 d6 11 bd 44 2b 33 bc
       -0.07904507 -0.035117783 -0.0356051 -0.010935608
000220 c2 0b 81 ba f6 7e 28 bc 8c 99 6e bc 22 e9 80 bc
       -0.0009845423 -0.010284176 -0.014562976 -0.015736166
000230 74 1d 8e bc b3 79 9d bc 35 43 a9 bc f0 b1 99 bc
       -0.017348029 -0.01922307 -0.02066193 -0.018761605
000240 e8 f0 60 bd ef ee 39 bd 70 09 e8 bc ba b7 23 be
       -0.054917246 -0.04539388 -0.028324813 -0.15988055
000250 b3 e3 ba bd 72 07 b3 bc 48 19 1a 3c 6c e6 9e 3a
       -0.091254614 -0.021854136 0.009405442 0.0012123114
000260 aa 7a 31 bc 9d 66 64 bb 97 6c b8 3b 55 8b 51 bc
       -0.010832468 -0.0034851201 0.0056281793 -0.012789567
000270 16 4b 19 3b 2a 1e b3 3b 77 eb 89 3e df 20 e3 3b
       0.0023390702 0.0054662423 0.26937458 0.006931409
000280 ab 55 91 3c c4 e0 48 3d 7f d1 5d 3b 04 22 e7 bc
       0.017741045 0.04904248 0.0033846793 -0.028214462
000290 da ab bc bd 1a 7b 66 3b 20 a0 72 3c 80 59 9e bd
       -0.092124656 0.003516859 0.014808685 -0.077319145
0002a0 78 74 2f 3d 3e 45 2c 3d d7 5f 16 bc fe fd d5 bb
       0.042835683 0.042058222 -0.009178123 -0.0065305224
0002b0 d8 cf 84 bc 48 02 07 bb 35 c6 93 bc 4d 38 27 bb
       -0.016212389 -0.0020600725 -0.018038848 -0.0025515736
0002c0 ff ae 1b 3e 64 71 35 bc c7 e6 0b bc 7a 24 85 bc
       0.15203474 -0.011074398 -0.008538908 -0.016252745
0002d0 38 26 d2 3c c5 0e bb 3d 03 83 97 3b 74 9d 95 3a
       0.02565299 0.091336764 0.004623772 0.0011414723
0002e0 9a a9 03 be 16 61 8d bd c6 b8 00 bc 38 c0 e0 3d
       -0.12857667 -0.06903283 -0.007856553 0.10974163
0002f0 f0 ff a6 bb 29 1e 77 3d dc 16 7d 3d eb b4 2f 3d
       -0.005096428 0.060331497 0.06178938 0.042897146
000300 81 e1 4e 3d 8e bb 3d 3d eb 1c 48 3c 43 62 b7 ba
       0.050508026 0.046321444 0.012213926 -0.0013991076
000310 88 e8 50 39 b1 9f 1f 3c 75 e2 c5 bd c4 0c 87 bd
       0.0001992305 0.009742663 -0.09662334 -0.06594232
000320 3c 32 be bd 36 0e 94 bd 9a 43 e7 bc 61 82 be bd
       -0.09286925 -0.07229273 -0.028230477 -0.093022116
000330 a5 1a a7 bd 44 6d 4d bd 16 5a dc bd 41 7e 87 3c
       -0.08159379 -0.050153032 -0.1075937 0.016539695
000340 fb cb c1 3c d4 78 17 3b bc cc b4 3c af 30 e4 3c
       0.023656836 0.002311279 0.022070281 0.027855245
000350 46 b1 f8 3b f4 f7 ba b9 d4 bb 28 be f6 ea 7a 3c
       0.007589492 -0.00035661424 -0.164779 0.015314808
000360 f9 26 03 3c 30 b5 58 3c 09 e7 10 3d 3b f7 ce 3a
       0.008004897 0.013226792 0.035376582 0.0015790233
000370 82 33 ef bb 09 64 5d 3e 7a 08 20 3b b8 7c 85 3b
       -0.0072998414 0.21620192 0.0024419115 0.0040737055
000380 c1 21 ce 3b 60 55 df ba 22 af a3 ba c0 bf 3b ba
       0.006290645 -0.0017038994 -0.0012488107 -0.0007162057
000390 40 8c f2 39 0f 1c a9 3d 4b 63 9a ba 09 9a 2a 39
       0.0004626233 0.08257305 -0.0011778859 0.00016269846
0003a0 c0 7e 87 ba 27 29 72 ba c4 0d 62 3b 32 83 85 3c
       -0.0010337457 -0.00092376996 0.0034493068 0.01629791
0003b0 80 e4 01 3c 6d ac 22 3c b6 7b c7 3e 03 53 12 3c
       0.007928014 0.009928805 0.3896157 0.008930924
0003c0 0b da 87 3c 5b 63 5c 3c e3 b8 1e 3c 96 f2 14 3e
       0.016583463 0.013451423 0.009687635 0.14545664
0003d0 8e 91 1b 3d a5 74 6d 3c ac 07 9a 3e 40 26 45 bc
       0.03798061 0.014493142 0.30083978 -0.012033045
0003e0 49 71 e3 ba 37 8c 9d 3b f4 ff 5a 3c 0e 02 a1 3b
       -0.0017352487 0.0048079747 0.013366688 0.004913575
0003f0 8f 58 cb 3c 75 43 ba 3c 67 77 8f bb 50 0c 6e 3c
       0.024822501 0.022737244 -0.0043782475 0.014529303
