online_iceocean/CNN_weights/NetworkB_weights_1982-2017_P1.pt (torch, 46815 bytes, 4 tensors)

conv_net.C1.weight f4 [32, 12, 1, 1]
0	0x3d8d82a0	0.0690968
1	0x3e030053	0.12793092
2	0x3d58dfaa	0.052947678
3	0x3e0236b2	0.12716177
4	0x3df320a5	0.11871461
5	0x3e9793ac	0.29604852
6	0xbdfc026e	-0.12305151
7	0xbf3b7013	-0.73217887
8	0xbe8191e9	-0.25306633
9	0x3e1d792d	0.15378256
10	0xbe4743f5	-0.19459517
11	0xbf1f382b	-0.6219508
12	0xbd8b82c5	-0.06812052
13	0xbf1d39a2	-0.61416066
14	0xbe68e831	-0.22744824
15	0x3e512200	0.20423126
16	0xbe22de4d	-0.15905114
17	0x3e98b348	0.2982428
18	0x3d1c4a78	0.038156956
19	0x3e0fc2b2	0.14039114
20	0x3dce799f	0.10081791
21	0x3ee5f9f3	0.4491726
22	0x3e120d44	0.14262873
23	0xbce3b211	-0.02779487
24	0xbc136aed	-0.008997661
25	0x3cc362ac	0.023850761
26	0xbc379294	-0.011204381
27	0xbd8e2e9a	-0.06942482
28	0x3cfe5d0f	0.031050233
29	0xbdbf1b26	-0.0933135
30	0x3dae15d8	0.0850026
31	0xbe5b7cd9	-0.21434344
32	0xbe881d9b	-0.26585087
33	0xbb8736d1	-0.0041264077
34	0xbdb31609	-0.08744437
35	0x3f355ee0	0.7084789
36	0xbde3f27a	-0.11130233
37	0x3e252eb9	0.16131105
38	0xbdd64725	-0.104627885
39	0x3d092073	0.03347821
40	0xbe3c6a44	-0.18399912
41	0xbe1cb7cc	-0.15304488
42	0xbe04b98f	-0.1296141
43	0x3e08af8c	0.13348216
44	0x3e6cd71b	0.23128931
45	0x3ef265ed	0.47343388
46	0x3c84b461	0.016199293
47	0xbe8ea653	-0.2786127
48	0xbdc63fe1	-0.09680153
49	0xbda35cd5	-0.07976691
50	0x3d5f8f4a	0.05458001
51	0xbdae44fd	-0.08509252
52	0xbb457093	-0.0030126914
53	0xbd933220	-0.07187295
54	0x3d53a8ae	0.051674537
55	0xbf8f6631	-1.1203061
56	0x3ed40999	0.41413572
57	0xbe72c858	-0.23709238
58	0x3d8d37c1	0.068954
59	0xbb70f55f	-0.0036767346
60	0xbd4024c0	-0.046910048
61	0x3c30a6c6	0.010781949
62	0xbd81c908	-0.06337172
63	0xbd87f8ed	-0.06639276
64	0xbcbbeda0	-0.022940457
65	0xbd8ab159	-0.06772108
66	0xbde6ab32	-0.11263122
67	0xbfbaef67	-1.460431
68	0xbea6fa89	-0.32613018
69	0x3e64bef6	0.22338471
70	0x3cc7348d	0.02431705
71	0x3ebfa00f	0.37426803
72	0xbe36538a	-0.17805305
73	0xbbd67698	-0.006544899
74	0x3d04497d	0.032296646
75	0x3ea8d3af	0.32974002
76	0xbdffef58	-0.12496823
77	0x3ea1ebf3	0.31625327
78	0xbe8bd20e	-0.27308697
79	0x3ea7fb6b	0.32809004
80	0xbdfe5693	-0.124188565
81	0xbd1db557	-0.038503017
82	0x3d3b0a51	0.045664135
83	0x3e99c7b1	0.30035165
84	0x3de39e0e	0.11114131
85	0x3d7d061a	0.061773397
86	0xbe53c3d6	-0.20680174
87	0x3e24c9cc	0.16092604
88	0xbd15c9d1	-0.03656942
89	0xbcfd4e96	-0.030921262
90	0xbe1cd6a9	-0.15316261
91	0x3e8eff24	0.27929032
92	0xbe34c888	-0.17654622
93	0x3ec8273d	0.39092436
94	0xbdcab5f7	-0.09897988
95	0x3d2ea3df	0.04263675
96	0x3cb0bb8d	0.021573806
97	0xbf97b248	-1.1851282
98	0xbf219e65	-0.63132316
99	0xbdb901ce	-0.09033547
100	0xbcb52b55	-0.022115389
101	0xbde502ed	-0.11182199
102	0xbe4092c3	-0.18805985
103	0x3d353710	0.044241965
104	0xbb9cc02b	-0.0047836504
105	0xbe8a1aef	-0.26973674
106	0xbe177c83	-0.14793591
107	0x3d93b475	0.07212154
108	0xbbe15981	-0.006877125
109	0x3cd57c37	0.026060207
110	0xbc6c5eff	-0.014426946
111	0x3c5966d9	0.01326915
112	0x3c19aaaf	0.009379073
113	0x3c021d30	0.007941529
114	0x3d33c0a3	0.043884885
115	0x3e13aeb4	0.14422113
116	0x3d9d77bd	0.07688854
117	0xbfc394b6	-1.5279758
118	0xbdccdd73	-0.100031756
119	0xbea755ef	-0.3268275
120	0xbd6f8657	-0.058477726
121	0x3cc0b1e2	0.023522321
122	0xbdbea8b4	-0.09309521
123	0xbe2d21bb	-0.16907398
124	0x3cf5a03f	0.029983638
125	0xbdf33e13	-0.11877074
126	0xbe19b96c	-0.15012139
127	0xbe6069dd	-0.21915384
128	0x3c5d5bf0	0.013510689
129	0xbeebea30	-0.46077108
130	0xbd00f273	-0.031481218
131	0x3f3d305b	0.7390191
132	0xbe822c20	-0.2542429
133	0x3dc9385a	0.09825201
134	0xbd1dfcad	-0.03857105
135	0x3e287c4e	0.16453668
136	0x3d31f683	0.043447983
137	0x3ec86ab7	0.39143917
138	0x3c18eaca	0.009333322
139	0x3ea904b5	0.33011404
140	0xbcd5e258	-0.026108906
141	0x3ef9366a	0.48674327
142	0xbd164971	-0.036691133
143	0xbf62f62b	-0.8865687
144	0x3e1686dc	0.14699882
145	0xbd974bcc	-0.07387504
146	0xbd8cae8f	-0.06869232
147	0x3e563aff	0.20920943
148	0xbd9f022f	-0.07764088
149	0x3d876f74	0.06613055
150	0xbd941685	-0.07230858
151	0xbf899eef	-1.0751628
152	0xbe5446aa	-0.20730081
153	0xbf18a858	-0.5963187
154	0x3e17479f	0.14773415
155	0xbe9bc87f	-0.30426404
156	0x3bcb49bf	0.0062038596
157	0x3d27cc27	0.04096618
158	0xbb45051a	-0.0030062855
159	0x3d4401f2	0.047853418
160	0x3cd1d05b	0.025612047
161	0xbfcb8934	-1.5901246
162	0xbea6d115	-0.32581392
163	0x3d3c6c8b	0.046001952
164	0x3d0efbd6	0.03490814
165	0xbdc5dd1b	-0.09661313
166	0x3d0b9623	0.03407873
167	0xbe86fa23	-0.26362714
168	0x3e03c75d	0.1286902
169	0xbd65ddc6	-0.056119703
170	0xbd939be8	-0.07207471
171	0xbe686448	-0.22694504
172	0xbe03551d	-0.12825437
173	0xbf82bc3c	-1.0213695
174	0x3ef17470	0.47159147
175	0xbe766d76	-0.24065194
176	0x3de03538	0.10947651
177	0xbbd4359e	-0.006476118
178	0x3c577bf7	0.013152114
179	0x3d5d0ec9	0.05396918
180	0x3d087ddc	0.033323154
181	0x3d9a9749	0.075483866
182	0xbd0b2f99	-0.03398094
183	0xbf920b8b	-1.1409773
184	0xbe601577	-0.21883188
185	0x3da556b7	0.0807318
186	0x3de3d9f5	0.111255564
187	0x3eaf13e6	0.3419487
188	0x3c834f31	0.016028972
189	0xbd5e117c	-0.054215893
190	0x3df4ee7c	0.1195955
191	0x3d1e1489	0.038593803
192	0xbe25a802	-0.16177371
193	0xbe4ec55d	-0.20192476
194	0x3db40a12	0.08790983
195	0x3dffd31a	0.12491436
196	0x3e701f7b	0.23449509
197	0xbf47cfa9	-0.7805124
198	0xbe57a15d	-0.21057649
199	0x3cf933dc	0.030420236
200	0xbe1860e2	-0.14880708
201	0x3dfa852b	0.12232431
202	0xbdf3f524	-0.11911991
203	0xbec2aaa9	-0.38020828
204	0xbc17eace	-0.00927229
205	0xbfe18f40	-1.7621841
206	0xbd459f10	-0.048247397
207	0xbd552368	-0.05203572
208	0x3d5a6075	0.053314645
209	0xbdc8844a	-0.09790857
210	0xbdbac07d	-0.091187455
211	0x3d6aa45e	0.05728566
212	0xbd942636	-0.07233851
213	0xbd94ee8c	-0.07272062
214	0xbd186cd2	-0.037213154
215	0x3e33dfdc	0.17565864
216	0x3e179f5a	0.14806882
217	0x3ca9a392	0.02070788
218	0xbc002528	-0.007821359
219	0xbd01b1c3	-0.031663667
220	0xbe54b6b8	-0.20772827
221	0xbdc2f0d7	-0.09518593
222	0xbd948510	-0.07251942
223	0x3dbfad55	0.09359232
224	0xbe2cc194	-0.16870719
225	0xbed446cc	-0.41460264
226	0xbe8cb510	-0.2748189
227	0xbe95bab1	-0.29243997
228	0x3daa8f5b	0.08328124
229	0xbdacd28c	-0.08438596
230	0xbd8a9796	-0.06767194
231	0xbf4c5984	-0.7982409
232	0xbe9d8626	-0.3076641
233	0x3ea6adf9	0.32554606
234	0xbe6dd67c	-0.2322635
235	0xbea9a126	-0.3313076
236	0xbe6e1faa	-0.23254266
237	0x3b6ca112	0.0036106748
238	0xbe442f0d	-0.19158573
239	0x3ea2098c	0.3164791
240	0x39fd6ce6	0.00048337056
241	0x3e82ad10	0.2552266
242	0xbd97d9a2	-0.07414557
243	0x3e819403	0.25308236
244	0xbd047a3c	-0.032343134
245	0x3e113b27	0.14182721
246	0x3e50f43e	0.20405671
247	0xbde5404f	-0.111939065
248	0xbe3241d7	-0.17407928
249	0x3e829237	0.25502178
250	0x3d6282dd	0.055300582
251	0xbe9ba3c1	-0.30398372
252	0x3f11e8e6	0.56996
253	0xbf58d043	-0.8469278
254	0x3d39265d	0.0452026
255	0x3dd3ae4f	0.10335981

conv_net.C2.weight f4 [64, 32, 1, 1]
0	0x3dd070c2	0.10177757
1	0x3c2e9d8d	0.01065768
2	0x3d41c940	0.047311068
3	0xbec2669f	-0.3796892
4	0x3dc45162	0.09585835
5	0x3f110b91	0.56658274
6	0xbe15e4a6	-0.14638004
7	0xbe11e60e	-0.14247915
8	0x3bd6815b	0.006546182
9	0x3d5c2ec9	0.053755555
10	0xbe8f86fb	-0.2803267
11	0x3cac8162	0.021057788
12	0xbdc35f49	-0.095396586
13	0xbcd53ac5	-0.026029
14	0x3e0d8cbe	0.1382322
15	0xbe5d0094	-0.21582252
16	0x3e2d8c9e	0.16948172
17	0xbe829c09	-0.2550967
18	0xbd7c79d5	-0.061639626
19	0x3d2bc1da	0.041932918
20	0x3ebeb76d	0.37249318
21	0x3d9abd15	0.07555596
22	0x3d95aa9c	0.07307932
23	0x3e593d4e	0.21214792
24	0xbe9505e9	-0.29106072
25	0x3d6bee4c	0.057600304
26	0xbd9c7bc8	-0.07640797
27	0xbdd23aee	-0.10265146
28	0x3dd474ac	0.10373816
29	0xbc7668a6	-0.015039599
30	0xbd98626e	-0.07440649
31	0xbd72fe9b	-0.059324842
32	0xbdd0ee34	-0.10201684
33	0x3de2bb78	0.11070913
34	0x3da5dd6d	0.08098874
35	0xbdcf3b0d	-0.10118685
36	0xbdf39729	-0.11894066
37	0xbc593ee1	-0.01325962
38	0xbd572741	-0.05252767
39	0x3d293c7d	0.04131745
40	0xbe7d0ad0	-0.24711156
41	0xbe804fb5	-0.25060812
42	0xbe2808c6	-0.16409597
43	0x3e684308	0.2268182
44	0x3d8d483b	0.068985425
45	0xbe4f9c54	-0.20274478
46	0x3e0410a1	0.12896968
47	0xbf135001	-0.5754395
48	0xbca1b05c	-0.019737415
49	0xbea22259	-0.3166683
50	0xbd0d5dbe	-0.034513228
51	0x3d6863cd	0.056735802
52	0xbe8ea854	-0.278628
53	0xbee2ec97	-0.4432113
54	0xbe38b7d3	-0.18038873
55	0x3dd6ab0f	0.104818456
56	0x3e947bbb	0.2900065
57	0x3d878ca5	0.06618623
58	0x3e259304	0.16169363
59	0xbdd059c4	-0.101733714
60	0xbe051497	-0.12996136
61	0xbeaeac20	-0.34115696
62	0xbd699499	-0.05702648
63	0xbe2b8be9	-0.1675259
64	0xbe1de215	-0.15418275
65	0x3cf12ae3	0.029439395
66	0x3dba2b4e	0.09090291
67	0x3d84ad3d	0.06478355
68	0x3e2d7793	0.16940145
69	0xbe3ffa2e	-0.1874778
70	0x3e3efacc	0.18650359
71	0xb65dc26f	-3.3044741e-06
72	0xba17d7ee	-0.0005792369
73	0x3e7a9f8a	0.24474922
74	0xbe40408a	-0.1877462
75	0xbe53d926	-0.20688304
76	0x3d3b35d9	0.04570565
77	0x3dec7f1c	0.11547682
78	0x3e9189e8	0.28425527
79	0x3daad111	0.083406575
80	0xbe8e8aaa	-0.27840167
81	0xbeb44f0e	-0.35216564
82	0xbe34a70b	-0.17641847
83	0x3e7f71b2	0.24945715
84	0xbe7a14b6	-0.24421963
85	0x3e98e9af	0.29865786
86	0xbe26c703	-0.16286854
87	0x3e8a41cc	0.27003324
88	0x3d28a23e	0.04117035
89	0xbd1adf02	-0.037810333
90	0x3e8f3139	0.2796724
91	0x3d49cadc	0.049265727
92	0xbd7827a1	-0.060584668
93	0x3e22c187	0.15894137
94	0xbea52fc5	-0.32263008
95	0xbe13fb09	-0.14451231
96	0xbddfe66f	-0.109326236
97	0xbe81675d	-0.25274172
98	0xbd674d4a	-0.056470193
99	0xbe4ade1a	-0.19811288
100	0xbe2f2b79	-0.17106427
101	0x3e5f375f	0.21798466
102	0xbdb5b5e0	-0.088725805
103	0xbee3a158	-0.44459033
104	0xbeab9ac0	-0.33516502
105	0xbe693251	-0.227731
106	0x3e22ea36	0.15909657
107	0x3d9dedd4	0.07711378
108	0xbe4d3850	-0.20041013
109	0x3c8d976f	0.017284123
110	0x3cbc71e7	0.023003532
111	0x3ebbeca1	0.3670397
112	0xbd1088c7	-0.03528669
113	0xbd8d24af	-0.068917625
114	0x3e61f29f	0.22065209
115	0x3e985f3d	0.2976016
116	0xbd915045	-0.07095388
117	0xbd05d8c4	-0.032677427
118	0xbb603fb9	-0.003421767
119	0x3e1fa9f7	0.1559218
120	0x3e3df1e7	0.1854931
121	0xbe133750	-0.14376569
122	0x3e882cad	0.26596585
123	0x3d9f23a6	0.07770471
124	0x3e10ad4e	0.1412861
125	0x3e84a9e6	0.25910872
126	0xbe120988	-0.14261448
127	0x3e08b7fa	0.13351431
128	0x3e849396	0.2589385
129	0x3e537911	0.20651652
130	0xbdb9a758	-0.090651214
131	0xbdd7c6de	-0.10535978
132	0xbe568983	-0.20950894
133	0x3d40d73f	0.047080275
134	0x3d1b40a6	0.03790345
135	0xbe46dcaa	-0.19420114
136	0xbf5da269	-0.86575943
137	0x3ebc1c77	0.36740467
138	0x3d8c24e5	0.068429746
139	0x3ec7a33d	0.38991728
140	0x3e2a11f5	0.16608413
141	0xbe0dfdd8	-0.13866365
142	0xbec7bf13	-0.39012966
143	0xbd3805c3	-0.04492737
144	0x3dc31f45	0.095274486
145	0x3e5de48c	0.21669215
146	0xbced15e9	-0.028941112
147	0xbdecb411	-0.115577824
148	0x3e26787c	0.16256899
149	0x3d9b7df5	0.07592384
150	0x3dd35cfd	0.103204705
151	0xbe24f965	-0.16110761
152	0xbe86cc5c	-0.2632779
153	0xbda487d6	-0.08033721
154	0xbdd75066	-0.10513382
155	0x3e06deca	0.13170925
156	0xbb0c5fc6	-0.002141939
157	0xbc25f400	-0.010128975
158	0xbd865799	-0.06559677
159	0x3dfa7b00	0.12230492
160	0xbdbd0f5b	-0.092314444
161	0xbd9ac88d	-0.07557783
162	0x3e39de44	0.18151194
163	0x3e0ea9f6	0.13932022
164	0xbd84eed5	-0.06490866
165	0xbe89511b	-0.2681969
166	0x3dbbcf3d	0.09170387
167	0xbd408241	-0.04699922
168	0x3de96b97	0.11397474
169	0xbd833e5c	-0.064083785
170	0x3dad5405	0.08463291
171	0xbee788e2	-0.4522162
172	0x3d1f10b2	0.03883428
173	0xbd582f44	-0.05277945
174	0xbec03714	-0.3754202
175	0x3e00a445	0.12562664
176	0xbd88d352	-0.06680931
177	0x3e77ac80	0.24186897
178	0x3ca10cda	0.019659448
179	0xbe858b68	-0.2608292
180	0xbe7dd9e9	-0.24790157
181	0xbe50ebff	-0.20402525
182	0x3ddc1b1f	0.107473604
183	0xbea96497	-0.33084556
184	0xbc477e4e	-0.0121761095
185	0x3e3076b6	0.17232785
186	0x3d0ce7d0	0.03440076
187	0x3d2c3c8c	0.04204993
188	0x3e5bea53	0.21476106
189	0xbe122e75	-0.14275534
190	0xbeb16696	-0.3464858
191	0x3c74facf	0.014952376
192	0xbddd266b	-0.10798343
193	0x3dd0b322	0.10190417
194	0x3d0241b2	0.031800933
195	0xbe43df0c	-0.19128054
196	0x3e822b5b	0.25423703
197	0xbdee9cc0	-0.116509914
198	0xbd0637b3	-0.032767963
199	0xbe052090	-0.13000703
200	0xbd7affdb	-0.06127916
201	0x3e0fd671	0.14046647
202	0x3eb5f67a	0.3553961
203	0xbdd0021e	-0.10156654
204	0xbda6321d	-0.08115027
205	0xbe7e092f	-0.24808191
206	0x3e918417	0.2842109
207	0x3dd0586e	0.101731166
208	0xbda0a28c	-0.07843503
209	0xbd48db52	-0.049037285
210	0x3c904fc3	0.017616158
211	0xbdbc7a98	-0.092030704
212	0xbde600ec	-0.112306446
213	0xbe6d72f2	-0.2318838
214	0x3e9267ed	0.28594914
215	0xbea038dc	-0.3129338
216	0x3d13f5f1	0.03612322
217	0xbbf96739	-0.007611182
218	0x3e9d304f	0.3070092
219	0xbdef1009	-0.1167298
220	0xbd3b3f14	-0.045714453
221	0xbd519882	-0.051170833
222	0x3d3c1af5	0.045924146
223	0xbcccaa47	-0.024983538
224	0xbd8c7193	-0.068576
225	0xbec6c70e	-0.38823742
226	0x3e55035a	0.2080206
227	0xbebecb30	-0.37264395
228	0xbe58ecff	-0.21184157
229	0xbdb71d50	-0.08941138
230	0xbe3e5d42	-0.18590263
231	0x3e9394ee	0.28824562
232	0x3cd41391	0.025888236
233	0x3d0c4255	0.034242947
234	0x3e4e55c0	0.20149899
235	0x3d9b6f25	0.075895585
236	0xbd89d3ef	-0.06729876
237	0x3ec7d25b	0.39027676
238	0x3dae1a4c	0.085011095
239	0xbeb98476	-0.36233872
240	0xbce0ed4f	-0.027456908
241	0x3d953100	0.07284737
242	0x3d8c3f2f	0.06847989
243	0xbec039b2	-0.37544018
244	0x3d174314	0.036929205
245	0x3e0fee73	0.14055805
246	0x3d3690f6	0.04457184
247	0x3d2d67d2	0.04233534
248	0xbe202df3	-0.15642528
249	0x3e3488b4	0.17630273
250	0xbecc0865	-0.39850155
251	0x3e28a633	0.1646965
252	0x3e695d23	0.22789435
253	0xbdbb2dd3	-0.091396
254	0xbe149c7e	-0.14512822
255	0x3e90f90c	0.28315008

conv_net.C3.weight f4 [128, 64, 1, 1]
0	0xbd881bfe	-0.06645964
1	0x3b8b979c	0.0042600166
2	0x3cb0688b	0.021534225
3	0x3cd7067a	0.026248205
4	0xbe30f4ee	-0.17280933
5	0x3e865c4c	0.26242292
6	0x3daf8143	0.085695766
7	0xbd98388a	-0.07432659
8	0x3cb92401	0.022600176
9	0xbd8b9702	-0.06815912
10	0x3d16fdd2	0.036863156
11	0x3bda78da	0.0066672387
12	0x3dd4b202	0.10385515
13	0xbec7c109	-0.39014462
14	0xbb9441fa	-0.0045244666
15	0xbe357387	-0.17719851
16	0x3da4d485	0.080483474
17	0xbe0720ca	-0.13196102
18	0x3d5db875	0.05413099
19	0xbca5e620	-0.020251334
20	0xbd0c3b9c	-0.034236535
21	0xbde3a18e	-0.111147985
22	0xbd89d570	-0.06730163
23	0x3ac753e4	0.0015207496
24	0x3c3a8cc4	0.0113861
25	0xbdb516f2	-0.08842267
26	0x3e27bf4b	0.16381566
27	0x3c4fd7b0	0.012685701
28	0x3c83b27c	0.016076319
29	0xbe625618	-0.22103155
30	0x3d53a0bc	0.05166696
31	0xbd048e36	-0.032362185
32	0xbe82ad17	-0.25522682
33	0x3c641878	0.013921849
34	0x3e208e9f	0.15679406
35	0xbdb097c1	-0.08622695
36	0xbd06425b	-0.032778125
37	0xbd609a61	-0.054834727
38	0x3d9b3c63	0.07579877
39	0xbdac625f	-0.084172
40	0xbd3f7889	-0.04674581
41	0x3d0ed32a	0.03486935
42	0xbd4aba0d	-0.049493838
43	0xbd142833	-0.03617115
44	0x3cde25a5	0.02711756
45	0xbe9d95c2	-0.3077832
46	0x3dbf9595	0.093547024
47	0xbca4724d	-0.020074034
48	0xbe16ee89	-0.14739431
49	0xbdc83384	-0.09775451
50	0x3d4c88be	0.049935095
51	0x3a6a7032	0.000894311
52	0x3c8d15da	0.017222334
53	0x3e667e69	0.22509159
54	0xbdc207fc	-0.09474179
55	0xbdf0ae5f	-0.11752009
56	0x3da40a6b	0.080097996
57	0x3d98fc37	0.07469981
58	0xbdf63e85	-0.120236434
59	0x3b3d75f0	0.0028909408
60	0x3cdd6a59	0.02702825
61	0xbe5e41a5	-0.21704729
62	0x3d8e3b9a	0.06944962
63	0xbda1e03e	-0.07904099
64	0xbd20759c	-0.03917466
65	0x3a3ed1df	0.0007279198
66	0xbe1a9700	-0.15096664
67	0x3d5b920a	0.05360607
68	0xbe52deb9	-0.20592774
69	0xbd5dfe4d	-0.0541976
70	0xbe35cbf2	-0.1775358
71	0xbe5a7138	-0.21332252
72	0xbe27730d	-0.16352482
73	0x3c4073b4	0.011746336
74	0x3b4082a9	0.0029374755
75	0xbd80d1ee	-0.06290041
76	0x3d232853	0.039833378
77	0x3d560972	0.0522551
78	0xbda21452	-0.07914032
79	0x3db86409	0.09003455
80	0xbdcd1bf3	-0.100150965
81	0x3e053dd2	0.13011864
82	0x3dc85150	0.09781134
83	0x3dad5dbc	0.08465144
84	0x3ea0a7d0	0.3137803
85	0xbe710812	-0.23538235
86	0x3c85cf31	0.016334148
87	0xb9576451	-0.00020541369
88	0xbe4217f1	-0.18954445
89	0xbd116bcd	-0.035503197
90	0xbe0e7644	-0.13912302
91	0x3c3362ea	0.010948876
92	0x3e709598	0.23494565
93	0x3ea539e0	0.32270718
94	0xbdacdc9d	-0.08440516
95	0x3db2c286	0.08728509
96	0xbef8927e	-0.48549265
97	0x3e344758	0.1760534
98	0xbe88f9b2	-0.26753002
99	0xbe5f4acf	-0.21805881
100	0xbe03ee41	-0.12883855
101	0xbc0df732	-0.008664893
102	0x3de678ba	0.112534955
103	0xbea00b7e	-0.31258768
104	0xbe00f532	-0.12593535
105	0xbefe816f	-0.49708125
106	0x3db882ee	0.09009348
107	0x3ca65498	0.02030401
108	0xbe9523cf	-0.29128882
109	0x3ba7c40a	0.005119805
110	0xbe72094e	-0.23636362
111	0xbd395fae	-0.045257263
112	0x3de0927c	0.1096544
113	0xbd4a0b8a	-0.04932741
114	0xbe9d0926	-0.30671042
115	0x3bcf11fe	0.0063192835
116	0xbe9ae1f7	-0.30250522
117	0xbe541719	-0.20711936
118	0x3b982bf5	0.004643912
119	0xbe306b2a	-0.1722838
120	0xbc6237ca	-0.013807246
121	0x3bd3938f	0.0064567993
122	0x3e0242f4	0.12720853
123	0x3d1018ef	0.03518003
124	0xbe70c92a	-0.23514238
125	0x3e1a1292	0.15046147
126	0xbe1c0aef	-0.15238546
127	0xbc3b77c1	-0.011442126
128	0xbd7464a6	-0.0596663
129	0xbe2ffcd3	-0.17186289
130	0xbe88b0ad	-0.26697293
131	0xbe15a936	-0.1461533
132	0x3ea57368	0.3231461
133	0xbaa8c2fe	-0.0012875495
134	0x3da60828	0.081070244
135	0xbcdf1c96	-0.02723531
136	0xbe223fad	-0.15844603
137	0xbd02c0e9	-0.031922255
138	0xbe0d902c	-0.13824528
139	0xbdead3d0	-0.11466181
140	0xba9cf1e5	-0.0011973946
141	0xbdda3d61	-0.10656238
142	0x3d6d475d	0.057929385
143	0xbebb0c4e	-0.36532825
144	0xbd60e93f	-0.05490994
145	0x3dbe3217	0.09286898
146	0x3d46c1f4	0.048524812
147	0xbd5d40ca	-0.054016866
148	0xbe4b6729	-0.19863571
149	0xbdd60ae7	-0.10451298
150	0xbe3a8f93	-0.18218832
151	0xbde4dddb	-0.11175128
152	0xbd8a8d66	-0.06765251
153	0xbee8b56a	-0.45450908
154	0x3d5ae644	0.053442255
155	0xb9c226e8	-0.0003703155
156	0x3d888f68	0.066679776
157	0x3cd60f60	0.026130378
158	0xbe120813	-0.14260893
159	0xb991bd52	-0.0002779761
160	0xbe013e00	-0.12621307
161	0x3af54144	0.0018711467
162	0xbdb3566d	-0.08756719
163	0x3c8d00a4	0.01721222
164	0xbccacfa2	-0.02475721
165	0xbdaeb6b7	-0.08530944
166	0x3d20d0a0	0.03926146
167	0x3c8b3cc8	0.016996756
168	0x3e2836c6	0.16427144
169	0xbc0d7db0	-0.008635923
170	0x3dd2b7f6	0.10288994
171	0x3e1bba12	0.15207699
172	0x3e0d78bf	0.13815592
173	0xbc9a375d	-0.018825227
174	0xbdfe1cfa	-0.124078706
175	0x3e7046db	0.23464529
176	0xbe37bec4	-0.17943865
177	0x3de96534	0.11396256
178	0xbe6f50f8	-0.23370731
179	0xbc31917a	-0.010837907
180	0x3e0aa1a0	0.13538218
181	0xbe2bb401	-0.16767885
182	0xbdafb6f0	-0.085798144
183	0xbe26de72	-0.16295794
184	0x3ca91b70	0.020642966
185	0xb1cb4a4a	-5.9165233e-09
186	0x3d74e41d	0.05978786
187	0xbcf3ec3d	-0.029775733
188	0xbea035bb	-0.31290993
189	0xbbd6e844	-0.00655845
190	0xbd28e8cf	-0.04123765
191	0xbba494ff	-0.0050226445
192	0xbdf46ce2	-0.1193483
193	0xbe92425b	-0.2856625
194	0xbe6b880d	-0.23001118
195	0xbd9932f3	-0.07480421
196	0xbe94fed0	-0.29100657
197	0xbd7ebaf7	-0.062190022
198	0xbc990c00	-0.01868248
199	0xbf09c0d0	-0.53809834
200	0xbd566cb2	-0.052349754
201	0x3ce4275e	0.027850803
202	0x3e90899c	0.28229988
203	0x3d9fcce2	0.0780275
204	0x3e11be18	0.14232671
205	0xbe18d53b	-0.14925091
206	0x3e21bb55	0.15794118
207	0x3d54851e	0.051884763
208	0xbe6f6fbb	-0.23382466
209	0x3d82784d	0.06370602
210	0x3e80cf79	0.2515829
211	0xbe422ad2	-0.18961647
212	0x35e44088	1.7006105e-06
213	0xbeaa0995	-0.33210436
214	0xbe3b4e24	-0.18291527
215	0xbe1db03b	-0.15399258
216	0xbdffe5dd	-0.12495015
217	0xbe068b9e	-0.13139197
218	0x3e156dc8	0.1459266
219	0xba722860	-0.0009237584
220	0xbd5f8fee	-0.05458062
221	0xba7866cf	-0.0009475769
222	0xbeaf8d67	-0.3428757
223	0xbda5cd40	-0.08095789
224	0xbe7d1f41	-0.24718954
225	0x3e8a762e	0.2704329
226	0xbd1c7ed4	-0.03820689
227	0x3daee220	0.08539224
228	0xbe07a839	-0.13247766
229	0xbddefa37	-0.108875684
230	0xbe94fde1	-0.29099944
231	0xbcb154a0	-0.021646798
232	0xbf00852c	-0.50203204
233	0xbcc11e11	-0.023573907
234	0x3b35cde8	0.0027741138
235	0x3ac4dea5	0.0015019967
236	0x3c98573c	0.018596284
237	0xbda8d52e	-0.08243786
238	0xbc9bd8f2	-0.019024346
239	0xbdb213df	-0.08695196
240	0xbc84bc0d	-0.01620295
241	0x3ca5da0f	0.02024558
242	0x3d0b75e9	0.034047995
243	0xbacede76	-0.0015782851
244	0x3dbbb380	0.09165096
245	0xbee1a422	-0.44070536
246	0xbde26d5a	-0.110560134
247	0xbe6926c5	-0.22768696
248	0xbe396078	-0.18103206
249	0xbc173203	-0.009228232
250	0xbb2b8361	-0.0026170837
251	0xbd6bc7b7	-0.05756351
252	0xbddc451d	-0.1075537
253	0xbe28eb67	-0.16496049
254	0xbe74ad31	-0.23894192
255	0x3e14bbc8	0.14524758

conv_net.C4.weight f4 [5, 128, 1, 1]
0	0x3c765828	0.0150356665
1	0xbb374679	-0.002796559
2	0x3df2dbed	0.11858354
3	0xbcecdee8	-0.028914884
4	0xbca1eccb	-0.019766232
5	0x3be3b161	0.0069486354
6	0x3d3a2739	0.045447562
7	0xbdcc49b7	-0.099749975
8	0xbc203c4a	-0.009779999
9	0x3cc177c2	0.023616675
10	0xbbcab317	-0.0061859
11	0xbdd2559a	-0.102702335
12	0xbe5c1d11	-0.21495463
13	0xbc6099fa	-0.013708586
14	0xbbbfd56d	-0.0058542998
15	0x3d6b0e9c	0.05738698
16	0x8301f770	-3.8193737e-37
17	0x3c517c8c	0.012786042
18	0xbcb7c5f2	-0.022433255
19	0x3d99f053	0.07516541
20	0xbe64cfdb	-0.22344916
21	0x3e9a9ea4	0.30199158
22	0x3f05deaf	0.52292913
23	0xbb0f78b8	-0.0021892022
24	0x3cba5eb5	0.022750238
25	0xbca2ad1b	-0.019857934
26	0xbd809119	-0.06277675
27	0xbd9bab19	-0.07600994
28	0xbd62a833	-0.05533619
29	0xbdab1e71	-0.083554156
30	0xbd74c480	-0.05975771
31	0x3d37f633	0.04491253
32	0x3d5e8d4c	0.05433397
33	0x3ec54b3f	0.3853397
34	0xbd1bcd60	-0.038037658
35	0x3b841f13	0.0040320246
36	0xbe232743	-0.15932946
37	0x3c374b81	0.011187435
38	0xbb041d65	-0.0020159122
39	0x3e3047d7	0.17214905
40	0xbc126e36	-0.008937409
41	0x3cfd94b3	0.030954694
42	0xbd15c149	-0.036561284
43	0x3d15c9ab	0.03656928
44	0xbbd6009f	-0.0065308358
45	0xbc4cb1be	-0.012493549
46	0x3d126a81	0.0357461
47	0xba9848d5	-0.0011618385
48	0xbe4ba230	-0.19886088
49	0xbe029478	-0.12751949
50	0xbca6ce98	-0.020362183
51	0x3d099fd2	0.033599682
52	0x3dacabd9	0.08431215
53	0x3c582195	0.0131916
54	0xbb5c34c7	-0.0033600794
55	0xbc927edb	-0.017882755
56	0x3cdd72b3	0.027032232
57	0xbde7bc73	-0.11315241
58	0xbbbad708	-0.0057019033
59	0xbb06e3af	-0.0020582487
60	0x3da12171	0.078677066
61	0xbcebcfd9	-0.028785633
62	0x3d08bb4a	0.033381738
63	0xbcf43d22	-0.029814307
64	0x02ed1828	3.4837885e-37
65	0xbdb24160	-0.087038755
66	0xbc085de5	-0.008323167
67	0x3e3b4379	0.18287458
68	0xbe027c78	-0.12742794
69	0x3ca46f39	0.020072566
70	0x3d578389	0.052615676
71	0x3bb36776	0.00547498
72	0x3c7fe47a	0.015618438
73	0x3cfb26c4	0.030658133
74	0xbbf4d254	-0.007471362
75	0xbc6ab2ec	-0.014324885
76	0xbcb45014	-0.02201084
77	0xbd0d690b	-0.034524005
78	0xbe380f65	-0.17974623
79	0xbc1046c6	-0.008805936
80	0x3ba0147e	0.0048852554
81	0x3cadb06a	0.021202285
82	0xbb3fc70a	-0.0029262924
83	0xbc805181	-0.015663864
84	0x3931aa17	0.00016943399
85	0x3cbf3344	0.023339875
86	0x3e598364	0.21241528
87	0x3bc34a8c	0.0059598144
88	0xbd1ccb12	-0.0382796
89	0xbbb9f523	-0.0056749745
90	0xbb131546	-0.00224431
91	0xbe2c1f05	-0.16808708
92	0xbbbc774f	-0.0057515274
93	0x3c9f0225	0.019410202
94	0xbccccbd9	-0.024999546
95	0x3d27f731	0.041007224
96	0x3c32c6b5	0.010911633
97	0xbd074d58	-0.033032745
98	0xbd54bd70	-0.051938474
99	0xbbd55edc	-0.0065115523
100	0xbc8f342f	-0.017480938
101	0xbe2e8c30	-0.17045665
102	0xbd950b32	-0.07277526
103	0xbc727bf3	-0.01480006
104	0x3d8b3327	0.06796866
105	0x3ca48338	0.020082101
106	0x3c9e5f26	0.01933248
107	0x3cb20d84	0.02173496
108	0x3ce3cb43	0.027806884
109	0xbe585f49	-0.21130098
110	0xbdd61a2f	-0.10454213
111	0xbc867803	-0.016414648
112	0x3a021caa	0.0004963378
113	0x3e6347ad	0.22195311
114	0xbe83ae5e	-0.2571897
115	0x3dbd8a6d	0.09254918
116	0x3d55cd58	0.052197784
117	0xbda75713	-0.08170905
118	0xbd02a890	-0.031899035
119	0xbd9b0849	-0.0756994
120	0xbd0b5ae5	-0.03402223
121	0x3ca96adc	0.020680837
122	0x3e01ca83	0.12674908
123	0x3d977a24	0.07396343
124	0x3d3d7ca6	0.046261452
125	0x3e04f2d0	0.1298325
126	0xbe5dfaa7	-0.21677648
127	0x3c2c9628	0.010533847
128	0x3cf6bdef	0.030119864
129	0x3d5d74de	0.05406653
130	0xbe883247	-0.2660086
131	0xbece61f6	-0.40309113
132	0x3b675a90	0.0035301782
133	0x3eb2b89f	0.3490648
134	0x3cd5f772	0.026118968
135	0xbe0d1145	-0.13776119
136	0xbb135982	-0.002248377
137	0xbda7552f	-0.08170544
138	0xbcfb5d32	-0.030684087
139	0xbdac31a7	-0.08407908
140	0x3e2b44f0	0.16725516
141	0x3e050dab	0.12993495
142	0xbc3f352c	-0.011670392
143	0xbe0da826	-0.13833675
144	0x833554b3	-5.328835e-37
145	0x3dd39f77	0.1033315
146	0xbf0fa582	-0.5611192
147	0x3bce096f	0.0062877457
148	0x3e30944f	0.17244075
149	0xbe7f5089	-0.24933065
150	0xbef1e38a	-0.4724391
151	0x3b8221d5	0.0039713182
152	0x3cdecc5b	0.027197054
153	0x3db6b2d3	0.08920827
154	0xbd27d362	-0.040973075
155	0xbd530341	-0.051516775
156	0xbd0f4a90	-0.034983218
157	0x3e324c43	0.17411904
158	0xbd70843c	-0.05871986
159	0xbe2799f2	-0.16367319
160	0xbea7ad9d	-0.32749644
161	0xbea2b30b	-0.31777224
162	0x3cd09949	0.025463717
163	0xbbbfc122	-0.0058518806
164	0x3dc4c0cd	0.09607086
165	0x3d61ae26	0.05509772
166	0xbd997980	-0.074938774
167	0xbd50b104	-0.050950065
168	0xbc5a97ed	-0.013341886
169	0x3cf16892	0.029468808
170	0xbb1d6589	-0.0024016818
171	0xbe0c364a	-0.13692585
172	0xbd3f2cb0	-0.046673477
173	0xbccfcf07	-0.025367273
174	0x3d7637b3	0.060111713
175	0x3e2e78b0	0.17038226
176	0x3e52c40b	0.20582597
177	0x3e1dcb6d	0.15409632
178	0xbe8d0703	-0.27544412
179	0x3e08f51a	0.13374749
180	0x3d86006e	0.06543051
181	0xbbaa1947	-0.0051910016
182	0x3cce61bc	0.025193088
183	0xbe0c3678	-0.13692653
184	0xbca5eee3	-0.020255512
185	0x3cf8fd22	0.03039414
186	0x3d2c0ae8	0.04200259
187	0xbc5b32e4	-0.0133788325
188	0xbe238aae	-0.15970871
189	0xbe00918a	-0.12555519
190	0x3bc93e66	0.0061414717
191	0xbc591369	-0.013249257
192	0x02aa3de0	2.501477e-37
193	0xbd51f8ed	-0.051262785
194	0xbbec0ff0	-0.0072040483
195	0xbd59eec8	-0.053206235
196	0x3e6df811	0.23239161
197	0xbe515989	-0.20444311
198	0xbd457e71	-0.048216287
199	0xbc1a52ca	-0.0094191525
200	0x3ca7054f	0.020388274
201	0x3d1a6138	0.03769037
202	0x3c23554a	0.009969065
203	0xbd264caa	-0.040600456
204	0x3c916489	0.017748134
205	0xbd22bdc2	-0.03973175
206	0x3d40971e	0.047019117
207	0xbd1cb381	-0.038257126
208	0xbb144117	-0.0022621804
209	0x3e6a5787	0.22884952
210	0x3db7619f	0.089541666
211	0xbd28c6b1	-0.041205112
212	0x3b09a2bc	0.0021001538
213	0x3a5a4251	0.0008325922
214	0xbe365c91	-0.17808749
215	0xbb4ae16c	-0.0030957116
216	0xbd1b2f44	-0.037886873
217	0xbd268f96	-0.040664278
218	0xbc4af446	-0.012387341
219	0x3da0d6ef	0.07853495
220	0xba5541b8	-0.0008135098
221	0xbd1e2ac1	-0.038614992
222	0xbd61984d	-0.055076886
223	0xbe843272	-0.25819737
224	0x3dfb1720	0.1226027
225	0xbd4d44a5	-0.050114293
226	0xbd21cd9d	-0.03950273
227	0x3b126f74	0.0022344263
228	0xbd846424	-0.06464413
229	0x3e16804a	0.14697376
230	0xbd3ebecd	-0.04656868
231	0x3e0b9baf	0.13633607
232	0x3cda8c76	0.026678305
233	0x3d772878	0.06034133
234	0xbdbd11bd	-0.09231899
235	0xbe4370cb	-0.19085996
236	0x3d2dfcb1	0.042477313
237	0xbd05f910	-0.032708228
238	0x3d0d16cd	0.034445573
239	0xbd97ef72	-0.074187174
240	0x3ce3a946	0.027790677
241	0xbda7a817	-0.081863575
242	0x3e1b1b34	0.15147096
243	0x3e4f4d31	0.2024429
244	0xbe3827f8	-0.17983997
245	0xbd8d2c09	-0.06893165
246	0xbbe292e5	-0.006914484
247	0xbe8cb829	-0.27484253
248	0xbd51a3aa	-0.051181473
249	0x3dbe32be	0.09287022
250	0x3dc7769e	0.09739421
251	0xbd9dcbec	-0.07704911
252	0x3d3531c7	0.044236924
253	0xbda88f94	-0.0823051
254	0x3e341ec9	0.17589869
255	0x3d330c68	0.043713003
