online_iceocean/CNN_weights/NetworkA_weights_1982-2017_P1.pt (torch, 394591 bytes, 4 tensors)

conv_net.C1.weight f4 [32, 17, 3, 3]
00000000: 5219 a6bd ac41 57bd 6a77 debd 5bea 103d
00000010: c176 43bd 1a60 d53d 2450 f63d c8ac e03d
00000020: f12a 0d3e 00a3 e9b9 e33b d53d 5fb0 74bd
00000030: e511 223c 894d 15bd cc2d 793d f82f 073e
00000040: 8aec d6bd 0a7b 183c 6737 373e f2fc 2e3e
00000050: 3d64 683d 5108 de3c 5c3c 5e3e 29b0 a43d
00000060: b2fb 433d 2300 303d 8c92 b13c 913b 1abe
00000070: 9a78 ee3d e4df 473d 4f8b c63e e049 863e
00000080: b732 e03d d4da 603e eab6 5e3e 4ed1 833c
00000090: bca2 a6bd 842a 753d d990 f03b be1d d8bd
000000a0: 93d0 b23d 5958 b73c 792d c0bd 46fa d3bb
000000b0: 95b6 cd3d 8a01 8abd c546 abbd 0171 ec3d
000000c0: 90d7 4ebd 92af 5ebb a6f4 2b3e 5cc5 07be
000000d0: 68b5 9bbc f00c 9a3d d79f 953c c3c2 26be
000000e0: 6e8a c1bb 79ce 8f3c f93a 953d 2775 eb3d
000000f0: 7e16 473d 74e1 ee3d cc32 cb3d 01d9 f9bd
00000100: 90c2 55be ac60 1abc 2f8c 273d 740b 033c
00000110: 8931 623c 1119 d23d e3fb 3a3e 08cf 053e
00000120: 0f16 1bbe 672c 0f3d 841d cb3d b744 54bc
00000130: 4a92 053e 6efb 193e 1e0a 6ebe 8996 8c3d
00000140: 5957 cabc 1d15 3bbd d08e 4f3d d3ba 2ebc
00000150: 1bac 89bc 0e6c 8a3d c46d e23c 5db9 3e3d
00000160: 7a04 4dbb e832 4ebd 51bc 3c3d 997c 17bd
00000170: 34ad acbb 82de a63d 7164 c2bd d19f 9e3d
00000180: dbb6 d7bd f6fd b5bd 7c01 c13b dbcb 553d
00000190: f416 f43c ff85 20bc 8fca 2e3c 4905 dfbd
000001a0: f789 ecbc 1bc6 06bb ddfe d8bd f803 303d
000001b0: 8077 bcbd 0899 bcbd c76d 33be 163f 58bb
000001c0: 9acd ccbc a949 443c f6e4 af3d f7ee 87bc
000001d0: 939a 0a3d 71c9 213c d485 74bd 797b 863d
000001e0: 994b 873d b370 09bd 7f11 1eb9 81b1 f03c
000001f0: afa5 82bc 935d a73c 5244 b33d 1ba1 bd3d
00000200: 4fd4 16bc 685b a3bc 07f6 1a3e 1928 b03b
00000210: 7fe1 07bd 8c97 cbbd f75a 52be 4834 3c3c
00000220: 8fd8 163d 2fb2 27bd aa0d 7abd b843 6e3d
00000230: cb2a 97bc 1540 1c3d 041a c6bd c99a c6bc
00000240: 7021 0a3d ce60 81bd e894 be3d 2bf8 493e
00000250: 6eca f9bd ad9c 8a3d d811 103d 84db 833c
00000260: 22bd 8d3c c5d0 6d3b b06c 4aba 5ada ffbd
00000270: e5b4 8b3e 3c01 033f 0158 ef3d cf74 8f3d
00000280: ce92 05bc fd67 62bd ff8a d93c 8560 92bb
00000290: 0525 a63c 5d7e 8fbc 4625 333e e403 36bd
000002a0: 0b81 3b3c 3535 1dbd 2520 2039 d541 9fbd
000002b0: 1d77 5ebd 88f6 5abe 2e6e 7c3d 1f24 70be
000002c0: 887c 08be d370 723d 7c6d 89be f09f 0dbe
000002d0: dd55 9dbc 8227 5abb 1b5c b9bc 8927 8e3d
000002e0: 2ba3 883d 4a52 76bd d0c6 02bd 5861 253d
000002f0: f762 4ebd 7321 cbbe b50e 5b3c fb5c 013e
00000300: 372f 9cbe 72fb 13bc 0ec9 b93e ff48 ffbd
00000310: 38de 5dbc 9023 6e3e c97d 13be 5cae 843c
00000320: 284b b23d 4344 99bd 0d20 22bc e428 1c3e
00000330: f29b 12bd e8dd bfbc 074b d43c d421 88be
00000340: a3c7 53be 0ceb 7bbe 62c4 193d 4fd8 b43c
00000350: e9b2 febd 9e55 a43e e691 753e d890 343e
00000360: 7ab9 26bd a1c9 1cbe f0d9 85bd 0e8f 26bb
00000370: 14c1 80bd 3f65 9fbc 6ec2 a03d 3e05 c33d
00000380: 531b d33d d287 3c3c 12de 073d faa7 96bd
00000390: e982 d13c 0b18 563c 2ee2 053d 21f2 b8bd
000003a0: 6917 e6bd 3947 c63b 3bca 5abd 4f39 c63b
000003b0: d8cb 2cbd 28d6 2b3c a57a 14bd e990 1a3c
000003c0: 100a 03bd df2f ea3c 4595 2abd 0cb3 eabc
000003d0: a7a7 a9bc f3ae 8f3d c458 e13c dce1 3bbe
000003e0: ffab 22bd 5f56 543d 98c4 4f3e 3789 9fbd
000003f0: c2a3 443d 37ca 79bd a266 eb3c c115 e9bc
-0.08110298 -0.052552864 -0.1086262 0.03537975 -0.047720674 0.104187205 0.12027004 0.109704554
0.13785912 -0.00044562668 0.10411813 -0.059738513 0.009891962 -0.036450896 0.06083469 0.13201892
-0.10494335 0.009306679 0.17892228 0.17088678 0.05673622 0.027103575 0.21702713 0.080414124
0.047847457 0.04296888 0.021676324 -0.15061785 0.11644097 0.048797503 0.3877816 0.26228237
0.10947173 0.21958476 0.21749464 0.016091015 -0.08136508 0.059855 0.007341486 -0.10552548
0.087311886 0.022380995 -0.09383673 -0.006469044 0.100445904 -0.06738575 -0.083631076 0.11544991
-0.050498545 -0.003397916 0.16792545 -0.1325888 -0.0190074 0.07521999 0.018264694 -0.16285233
-0.0059063947 0.017554509 0.07286639 0.114969544 0.048605435 0.116640955 0.09921798 -0.12199593
-0.20875001 -0.009422462 0.040905174 0.007998336 0.013805755 0.10258687 0.1826015 0.13067257
-0.15145133 0.034954455 0.09917739 -0.012955836 0.13044086 0.15037319 -0.23246047 0.0686465
-0.024699854 -0.045674432 0.050673306 -0.01066466 -0.0168057 0.06758891 0.027640231 0.046563495
-0.0031283186 -0.050341517 0.04607803 -0.03698406 -0.005269671 0.08147909 -0.09491814 0.07745326
-0.10532924 -0.0888633 0.0058900695 0.052196365 0.029796101 -0.009797572 0.010668411 -0.1088968
-0.02887438 -0.0020564857 -0.10595486 0.042972535 -0.0920248 -0.09208876 -0.17522345 -0.0032996587
-0.025000382 0.011980453 0.08588593 -0.01659344 0.03383882 0.0098746875 -0.05969794 0.06566519
0.06606216 -0.033554744 -0.00015074572 0.029381515 -0.015948145 0.020430362 0.087532654 0.09259244
-0.009205892 -0.019941047 0.15132914 0.0053758738 -0.033174034 -0.09941015 -0.20542513 0.011487074
0.03682762 -0.040941413 -0.061048187 0.05817005 -0.018453022 0.03814705 -0.09672931 -0.02424373
0.033723295 -0.06317292 0.09305745 0.19723575 -0.121968135 0.06768165 0.035173267 0.016095884
0.0173021 0.0036287766 -0.0007721884 -0.12492819 0.2728645 0.5117376 0.11686707 0.07004701
-0.008152677 -0.055274952 0.026555536 -0.0044670724 0.020281324 -0.01751631 0.17494687 -0.044437304
0.01144434 -0.03838082 0.00015270764 -0.07776228 -0.054312814 -0.21383107 0.061628513 -0.23451279
-0.13328755 0.05918963 -0.26841342 -0.13830543 -0.019205982 -0.0033287709 -0.022626927 0.069411345
0.06671747 -0.06013707 -0.031927884 0.040376037 -0.05038735 -0.39673957 0.013370206 0.12633125
-0.30504772 -0.009032117 0.36286205 -0.12465095 -0.013541751 0.23255754 -0.14403452 0.016196422
0.08705741 -0.07483723 -0.009895337 0.15249974 -0.035793252 -0.023421243 0.025914682 -0.2658831
-0.20681624 -0.24601382 0.0375408 0.0220758 -0.12436468 0.3209657 0.23981437 0.17633379
-0.040704228 -0.1531129 -0.06535709 -0.0025414857 -0.06286827 -0.019457458 0.078495845 0.09522484
0.10307946 0.011506991 0.033170767 -0.07356258 0.025575118 0.013067256 0.032686405 -0.090305574
-0.11234934 0.006050971 -0.05341552 0.006049312 -0.042186588 0.010488071 -0.036249775 0.009433963
-0.03199202 0.02858728 -0.04164626 -0.02864983 -0.020709826 0.07015791 0.027508147 -0.18347877
-0.03971481 0.051840182 0.20289838 -0.077898435 0.048007734 -0.060983863 0.028735463 -0.028452756

conv_net.C2.weight f4 [64, 32, 3, 3]
00000000: 70bc b93c a822 2fbd 3079 16bc 50de 4cbd
00000010: aee8 973b 80f3 fcbb c243 173d a8d0 8abc
00000020: 16ae 943c 6a5c 9cbc abab f5bc a04f 79bc
00000030: 8591 14bd ffa2 a43c 75e6 a83d d606 683d
00000040: 9510 d43d 0965 153d 27e4 09bd 5a15 b6bd
00000050: 20b5 babd f3a1 d33d 4384 8e3c 5276 373c
00000060: 78a0 22bd a512 efbd 39a6 5bbe bd85 0cbd
00000070: 9451 1fbe c084 0bbe 6b6e bbbd e4b8 203e
00000080: 8df3 203e a79c 40be 8856 253e eec9 1a3e
00000090: 6932 4abd 7d98 c5bc c98d 7cbd b57e b2bc
000000a0: 127d d8bc 4014 80bd 9d38 91bb 781b c8bc
000000b0: dd94 cfbc 8ceb 483d 7426 873c f2cf d5bd
000000c0: dd71 163a c798 623d a114 32bd 7c67 5b3d
000000d0: a53b 6bbd 4cfa cabd a69f 9f3d 10ec c6bc
000000e0: cdf6 303d 92eb 7e3d a9a5 953d dfab 9a3c
000000f0: 45af 4f3d 61c9 b7bb 51e6 1cbe 921c c73d
00000100: 5891 febd e7e3 50be 6b92 ebbc 61c2 2abd
00000110: 11a9 41bc 8105 16bd 2781 563d 0340 0fbb
00000120: 81a5 813d ce1c 47bd b6f7 10be befd f93d
00000130: 8ab1 1b3c afbe d4bc d2e6 7e3e d5da 9e3d
00000140: 8ae5 dfbc 448b 8ebc 75a2 aebd 4d7e 8dbd
00000150: 7f82 49bc e897 663d 8bc0 6d3d 0b2a c2bb
00000160: e516 913d 91b3 d5bc 3b34 873c 2bde d33c
00000170: bfa3 d13d 948f 4fbd 2dce 4b3c 6796 3f3b
00000180: 4f74 83bd 684b a0bc 0e16 56bd 2df3 93bd
00000190: 62ca a23c bce7 f63d 19b0 353d 8213 8c3d
000001a0: 52f0 153d 8da3 bc3c 076f 023d 3a67 91bc
000001b0: 7edd fc3c f317 cdba 9050 5ebd d8d8 153d
000001c0: a1d9 92bb cbbc b13d bd04 82bd fffe 183d
000001d0: e151 453c 0e77 1fbe bb95 dc3c 3147 103e
000001e0: 40bb 10be 06d2 88bd b90b 233e b23f 433d
000001f0: 702e 00be e5ee ee3c 57f4 8a3d efe4 5a3c
00000200: bbd0 863d 0481 2dbd 980f debd 7919 b93c
00000210: 32c1 05be f15a d6bd b250 73bd 07f9 933d
00000220: b06e b03d 4e22 353e bd50 923d 52c2 c1bc
00000230: 58b6 ce3c c303 17bd 760b 50be dc34 2cbe
00000240: 846a 103d 3acb 4cbd 3b12 09bd de01 1fbd
00000250: 2ec3 c8bd 42ec e6bc ecc7 cc3d fab8 7abd
00000260: 592b 2c3d 9727 fdbd bcba 97bd e982 57bd
00000270: c7fa 8cb9 36d5 433d 7dbc b0bc 810b d4bb
00000280: 1c03 a0bc 2c2f 70bb fe7b b8bd db4c 8abc
00000290: 4d08 643c 8535 b537 c0bc 6abd 8eb9 6cbd
000002a0: 08e2 c5bc c6eb b7bd d95b 03bd 8403 ac3d
000002b0: ad04 f1bc 4a98 17bd ce55 aa3d 7d91 743d
000002c0: 7ed3 62bd 9c82 153c 5aff 273d c4d5 3bbd
000002d0: d806 4a3e 5beb 3f3e 5982 013e 5622 0a3d
000002e0: 09ca 70bc 7a7d 23be 542b 8cbc 67be bebd
000002f0: c847 5ebe 09a9 483d 01b7 823c bdb9 b33c
00000300: a57d 36bd 050d 6c3c 2d90 703d add4 af3c
00000310: 17b8 f13c 9ac3 fabc 8713 5bbd 5571 59bd
00000320: e404 82bd cac7 b7bc 7090 9ebd 3037 ed3c
00000330: 1800 803d 74ab b1bc 009f ba3c 2b32 9cbd
00000340: 772d 06be b1b9 f1bd b564 66bd 465b babd
00000350: 15c6 6ebd 6d5e b03d 86bd 8f3d a8f3 173e
00000360: 1edc e4bb 91aa c23b 12c5 293a 3797 1b3c
00000370: 3e4d 8c3d 6563 053d 716a 1b3d 6cc1 cebb
00000380: 6197 62bd 9576 413b 7def 433b f328 f0bc
00000390: 9fb0 b5bb 3a6a 193d 6f8a 993d c87d 6b3c
000003a0: 4434 873a b85c 483d 04c4 a7bd 76e8 c03c
000003b0: 1045 6c3c b7ef 2f3c c0e4 0cbd b5d0 b73c
000003c0: df2f e73a b114 e93d be15 babc 305f 153d
000003d0: faec 94bb 9034 fd3b 138b 31bd 74ee 9cbc
000003e0: d333 86bc 62d3 71bc f697 c93c bf72 633d
000003f0: 7e65 f2ba 3f1f df3a dc37 03be b8b4 29bd
0.022672862 -0.04275766 -0.009184167 -0.0500167 0.004635892 -0.007719457 0.036929853 -0.016945198
0.018149417 -0.019087035 -0.029989084 -0.015216738 -0.03627159 0.020097254 0.08247081 0.056647144
0.10354725 0.036473308 -0.03366485 -0.08890791 -0.09116578 0.10333624 0.017397052 0.011197643
-0.039703816 -0.11673478 -0.21450128 -0.03430723 -0.15558463 -0.13624859 -0.0915192 0.1569553
0.15717907 -0.18809758 0.1614629 0.15116093 -0.04936448 -0.024120564 -0.061658654 -0.021788934
-0.026426826 -0.062538624 -0.0044317977 -0.02442716 -0.025339538 0.04905276 0.016497828 -0.10440053
0.0005739013 0.05532148 -0.043476705 0.053565487 -0.05742993 -0.099110216 0.077941224 -0.024282485
0.043204118 0.062236376 0.07306988 0.018880783 0.05070426 -0.005608723 -0.15322234 0.09722246
-0.12430066 -0.20399438 -0.028756341 -0.04168928 -0.011820094 -0.036626343 0.052369263 -0.0021858222
0.063303955 -0.048611455 -0.14156994 0.122066006 0.009502778 -0.025969831 0.24892738 0.07756583
-0.027331132 -0.017400391 -0.0852708 -0.069088556 -0.012299179 0.056297213 0.05804495 -0.005925422
0.07084445 -0.0260866 0.016504398 0.025862774 0.1023631 -0.050674036 0.012439293 0.0029233934
-0.064186685 -0.019567207 -0.052267127 -0.072241165 0.019871894 0.120559186 0.044357393 0.06839658
0.03660614 0.023027206 0.031844165 -0.017749418 0.030867334 -0.0015647396 -0.05427605 0.03658375
-0.00448151 0.086785875 -0.0634856 0.03735256 0.012043447 -0.1557276 0.026926866 0.14089657
-0.1413393 -0.06680684 0.1592244 0.047668166 -0.12517715 0.029166648 0.067848854 0.013360246
0.06582781 -0.042359367 -0.10842818 0.022595154 -0.1306198 -0.104665644 -0.05940313 0.072252326
0.08614862 0.17688867 0.07144306 -0.02365223 0.025233433 -0.03686882 -0.20316872 -0.16817039
0.03525783 -0.0499985 -0.03346465 -0.03882014 -0.098028526 -0.028188828 0.099990696 -0.061211564
0.042033527 -0.12361067 -0.07408664 -0.05261508 -0.00026889725 0.047810756 -0.021574253 -0.006471098
-0.019532733 -0.003664921 -0.09008025 -0.01688235 0.013917995 2.1601803e-05 -0.057308912 -0.057794146
-0.024155632 -0.08980517 -0.032070015 0.08399108 -0.029421175 -0.03701047 0.08317147 0.05970906
-0.055377476 0.009125378 0.041015007 -0.04585816 0.19729173 0.18742125 0.1264738 0.03372415
-0.014696606 -0.15965834 -0.017110504 -0.0931366 -0.2170707 0.04898933 0.015956404 0.021939153
-0.044553418 0.014407401 0.058731247 0.021463716 0.029506726 -0.030610848 -0.05348542 -0.053086597
-0.06348589 -0.022434134 -0.07742393 0.02895698 0.06250018 -0.0216882 0.022780895 -0.07626756
-0.13103281 -0.11802996 -0.056248385 -0.0909944 -0.058294374 0.0861176 0.070185706 0.14839041
-0.006984248 0.0059407433 0.0006476204 0.009496502 0.0685067 0.032565493 0.037943307 -0.006309679
-0.055320147 0.0029520143 0.0029897385 -0.029316401 -0.0055447365 0.03745482 0.07497107 0.01437325
0.0010315259 0.04891655 -0.08191684 0.023548346 0.014420763 0.010738305 -0.03439784 0.022438386
0.0017638168 0.113809 -0.022715446 0.03646773 -0.0045448514 0.007727213 -0.043345522 -0.019156672
-0.016382134 -0.01475987 0.024608593 0.055529352 -0.0018493382 0.0017022862 -0.12814277 -0.041432112

conv_net.C3.weight f4 [128, 64, 3, 3]
00000000: 61e2 27bd fc4f 33be 2582 9abb f1c4 c73c
00000010: 86db 29bd 95c3 903c ce09 e23c 9e95 86bb
00000020: 907d 193d e1f6 c63c e39e 863c 5f97 99bc
00000030: 662d dbbc c0f2 85bd 16e3 9dbc b869 abbc
00000040: 5481 82bd 4e58 50bd 1d7d cbbc e74e 7abc
00000050: ac13 bbbc fa7c c4bd 75f3 09be 565a a83c
00000060: ed25 0bbd 8687 4ebc 4ba1 5b3d b0e9 56bd
00000070: cf8f 1dbc 2f43 0d3c be55 75bc 0d51 96bd
00000080: 3110 85bc 5a2c 61bc e129 4d3c 42a7 233d
00000090: af4d 413d 48ce 2abb cc87 933d 1517 65bd
000000a0: 90a0 f9bd dfdb 69bd 6a11 84bc fdef 8a3c
000000b0: bfbc 0bbd f9d5 68bd 34a0 e83c 4dfc 763c
000000c0: de3d e53c da4b 1e3d b942 173d 7300 cebc
000000d0: b467 4bbb 3eb3 323d a0c3 9d3c e390 83bc
000000e0: bfd4 b93c 544e 083d 7d8b 543c 1129 c83c
000000f0: 5016 273d 1f6c 6fbd 5b1c a3bd b817 2c3d
00000100: 71fe 9b3b 40f9 a6bc 85fe 363c ccd3 11bd
00000110: e1c6 8abc 9675 af3d 1813 183d c563 8dbd
00000120: 1289 8ebd ca0e 09bc cbec 0bbe 53bb 6bbd
00000130: 25d2 46bc 215f ecbc 2142 d0bd 5b22 d6bd
00000140: 17e3 7639 7f9b 413b 5e0c 86bd c969 353c
00000150: 59dd a4bc bfa5 90be 9c65 29bc 3f2f 9ebd
00000160: 88a7 c83d c6e6 3d3c 174c 863c 1274 e83c
00000170: 8d6d a5bb 3d29 3c3b c789 83bd d320 ea3c
00000180: 3873 21bd d57a 91bd afb8 073e cb8c 02bc
00000190: b43d 1dbc 68ce d7bc dfbb ef3b e9c4 1e3d
000001a0: 0987 e53b 05ed 74bb 012d e6bb e511 08bd
000001b0: 54da b2bc e9d7 00bd 805e 45bc cf84 b9bd
000001c0: 9793 ac3c 0681 bbbd 5725 13bd bd54 02bc
000001d0: 6af0 6cbc 8876 873d 2fe8 903d 5b8d c73c
000001e0: 72fd 33bd c130 a3bd 32b5 573c 2f67 f8bc
000001f0: 8808 dd3c 33ca 16bd 23c8 87bd cc86 58bd
00000200: e992 76bc 562b aabd caa4 15bd 09b5 8f3d
00000210: f455 7bba d3f0 6a3b 8213 2dbd 89f4 8e3d
00000220: 8b60 2e3d 9bd5 3bbc ec3f 2f3c 1a76 f1bc
00000230: 3250 c0bc 0a65 96bd 1e20 94bd 78ea 5ebd
00000240: 5b6a 29bd bced 4c3c 20b5 41bc eb16 d2bd
00000250: 3cad 2bbc 4b1f e0bd 5c86 363c 0934 0c3d
00000260: 1cf0 c1bd 7d09 a6bc e3b6 32bc 3b37 34bd
00000270: 4f7b a73b 25a9 053d 8340 afbd 5366 6bbd
00000280: f71e 01bd 3a06 5abd 8d88 07bc c1be b63b
00000290: db90 87bd b42e 68bd 805f 10bd eb76 76bd
000002a0: 1341 d6bc 37d8 1ebc 1703 a6bd fbb4 0dbb
000002b0: dcad 1fbd 4926 99bd 6ab0 a73b 067a 0dbd
000002c0: 02e4 26bc ce7e e0bd f2f1 ccbd 29c6 ac3c
000002d0: 6638 d53c 58d8 4b3c 1904 04bb bc23 4cbd
000002e0: 82c2 14bd 3875 0e3d 2f7c b83c 0621 44bc
000002f0: db9b 98bc 21a6 1ebc 558b a0bd 6466 4abd
00000300: a90d 813c 15d3 ef3d 29b3 893d 6ef5 433d
00000310: b47f 993c 1e49 0c3c 55a6 2d3d 81f2 55bb
00000320: 4938 60bd 3f22 9a3d b365 b8bc cf99 283d
00000330: 5596 043d fc44 41bc 8585 01bc 167d e7bd
00000340: e459 afbd 0612 66bd 3064 62bd e1f6 10bd
00000350: ee6b 3cbd 7234 81bc 0489 9dbd 0353 b23c
00000360: ba91 0a3e e35c d1bb 5ba7 03bd 9861 d93c
00000370: f7c4 c4bd dac4 f73b 956d f0bd faf0 27bd
00000380: e8ea 9b3d 6a73 863d b5e4 773d 5c86 c6bb
00000390: 3453 cc3d c3ee eabc 310b a8bd 1f42 22bd
000003a0: ed58 c5bc a145 14be bd02 37bd e0a4 b03d
000003b0: b4bb b43d a746 b0bd 081b a6bc 3826 2abd
000003c0: db97 603c 1923 02bd 0566 5e3d 2e4e 893c
000003d0: e28b d2bc 4086 f6bd eaa4 3e3d 9608 8fbd
000003e0: c8c6 4bbd f0fa efbd b1a4 00be e7c3 d6bd
000003f0: 2a3b a83d 27b3 be3d 35f2 503d d11a 423d
-0.040987376 -0.1751098 -0.0047152215 0.024385901 -0.04146912 0.017671386 0.027592566 -0.004107191
0.03747326 0.024287643 0.016433185 -0.018748937 -0.026755046 -0.065404415 -0.019273322 -0.020924434
-0.06372324 -0.050865464 -0.024839932 -0.015277601 -0.022836529 -0.0959415 -0.13471778 0.020550888
-0.033971716 -0.0126055535 0.053620618 -0.052468956 -0.009616806 0.008621975 -0.014974056 -0.07339678
-0.016243072 -0.013743484 0.012522192 0.03995443 0.047193225 -0.0026062895 0.072036356 -0.055930216
-0.12188828 -0.05709445 -0.016121585 0.016960138 -0.03411555 -0.056844685 0.028396703 0.015074802
0.027983602 0.038646556 0.036928866 -0.025146699 -0.0031037154 0.04362797 0.01925832 -0.016060298
0.022684453 0.033277825 0.01297271 0.024433644 0.040792763 -0.05845272 -0.07964393 0.042014807
0.0047605564 -0.020382524 0.011169081 -0.035602376 -0.016940536 0.085673496 0.037127584 -0.06903795
-0.06959738 -0.008365342 -0.13664548 -0.057551693 -0.012135063 -0.028853955 -0.10168863 -0.104557715
0.00023544986 0.0029542146 -0.065453276 0.011072584 -0.020125078 -0.28251454 -0.010339167 -0.07723855
0.09797579 0.011590665 0.016393704 0.02837566 -0.00504846 0.0028711103 -0.06422763 0.028580105
-0.03941652 -0.071035065 0.13254045 -0.007968138 -0.009597231 -0.02634354 0.007316097 0.038762007
0.007004623 -0.003737272 -0.007024408 -0.03322019 -0.021832623 -0.031455908 -0.012046456 -0.09058534
0.02106647 -0.09155469 -0.035924282 -0.0079547735 -0.014461616 0.06614405 0.070755355 0.024359396
-0.043942876 -0.079682834 0.013165759 -0.03032264 0.026981607 -0.036813926 -0.0662997 -0.052862927
-0.015049675 -0.08309047 -0.03653411 0.070169516 -0.0009587698 0.0035849109 -0.042254932 0.06980235
0.04257254 -0.011464502 0.0106963925 -0.02947526 -0.02347574 -0.073434904 -0.07232688 -0.054422826
-0.041361194 0.012507852 -0.011822969 -0.102582775 -0.010478314 -0.10943469 0.011140432 0.034229312
-0.09469625 -0.020268196 -0.010907861 -0.043997984 0.005111135 0.032632012 -0.085572265 -0.05747063
-0.03152367 -0.053228594 -0.008272302 0.005576939 -0.06619426 -0.056685165 -0.035247326 -0.060172003
-0.026154077 -0.009695104 -0.08106058 -0.0021622765 -0.038984165 -0.074780054 0.0051174657 -0.0345402
-0.010186197 -0.10961686 -0.10007085 0.021090584 0.02602787 0.012441717 -0.0020144044 -0.049838766
-0.03631831 0.034779757 0.022520153 -0.011970764 -0.018629005 -0.009683163 -0.078390755 -0.049414054
0.015753584 0.117101826 0.06723625 0.047841482 0.018737651 0.008562354 0.042394955 -0.0032645764
-0.054741178 0.07526063 -0.022509431 0.04116231 0.03236993 -0.011796232 -0.007905369 -0.11303155
-0.08562067 -0.056169532 -0.055271327 -0.035391692 -0.046001367 -0.015772078 -0.07692149 0.021768099
0.13532153 -0.006389247 -0.032142024 0.026535794 -0.096078806 0.0075613083 -0.11739651 -0.041001298
0.07613164 0.06564982 0.060520846 -0.0060584974 0.09976807 -0.028678304 -0.082052596 -0.03961384
-0.024090255 -0.14479686 -0.044680346 0.086251974 0.08824864 -0.08607226 -0.020276561 -0.041540354
0.01370808 -0.031771753 0.054296512 0.016760912 -0.025701467 -0.12037325 0.046543993 -0.069840595
-0.04975012 -0.117177844 -0.12562825 -0.10486584 0.0821441 0.09311514 0.051012237 0.047388855

conv_net.C4.weight f4 [1, 128, 3, 3]
00000000: 4d8e 0abc 8462 82bc a9ed 66bd 5761 27bc
00000010: 82fe 18be 3f3b 3ebd 86a9 1abd a9b7 85bd
00000020: 5fa6 54bc 9f62 f03b 1099 31bc 4300 0fbe
00000030: 5512 ae3c da4d 82bc f18f d3bc 9dce dd3c
00000040: f825 233c 486c 83ba f8a5 d83d 9e21 69bc
00000050: 1533 8ebc 9583 26bd 1577 babc 9ce0 1cbc
00000060: 58b8 0abc 8de0 eabb 4235 99ba e8ba 7fbd
00000070: bb50 2b3d 0420 ed3c cd3d a5bd 48f8 0abd
00000080: e9a3 9d3d 61da 68bd f6fc fc3c 1800 133d
00000090: 2347 8a3c 76c0 b03c 4512 c13c a80e 283c
000000a0: bedf ea3c ed5a bc3c efc1 b63c a434 bf3c
000000b0: 8913 103d 8481 d4bb 372a 91bc 6363 aebc
000000c0: d453 dabc cd19 20bd a839 4cbd 3622 f0bc
000000d0: d7fa 72bd a122 a2bd 0e76 9ebc a1a1 0bbd
000000e0: 997c c7bc 8335 27bc 2279 f1bc cf5d 83bc
000000f0: 5491 3fbc 1314 fcbc 0caf bebc e1cb 14ba
00000100: 8082 68bc 3537 d33c ddbb 4c3c 3216 4cbc
00000110: 2bd9 9b3d 91d9 9b3c 11d2 0f3e 1542 eb3d
00000120: ef95 d5bc cdf0 c5bc 3f13 9fbc 8d1a eabc
00000130: a1c5 673e 2176 63bc 9380 1bbc c994 0cbd
00000140: 69b6 7bbc 623b fa3d 24cb 263e b896 823d
00000150: a3a6 f7bb a871 4c3b e19d c03b 6811 c83a
00000160: 3d64 083b 759c 2dba 8a2b 013b e074 5d3d
00000170: 7b4b 843d 2fc0 bbbc f632 c5bb bb99 453d
00000180: 8a41 57bd c23a 82bd 309b 9ebc 0aec 75bb
00000190: b9fd 00bc 72cf b2b7 542f 933b 4f44 59bc
000001a0: b742 1abb dcdc fe3c af3c 3f3d d735 383e
000001b0: 9552 460d bd92 4c0d b1d5 570d f8e3 3d0d
000001c0: 2c83 420d 800b 4b0d 1654 330d 07f7 370d
000001d0: d41f 3e0d b3f8 05bd f99c e7bc edb4 09bb
000001e0: 4552 d5bc f290 3fbe 017e 94b6 dd1c 3bbc
000001f0: 5398 0a3c ebaf 8dbb 8d58 20bd 1349 1dbc
00000200: 856f d5bc eb94 6abd 53db f4bc 43c6 ecbc
00000210: ea2f adbd b6cb 06bd 4c2d 13bd 552e 36bc
00000220: e6cc cdba 5e06 33bc 1639 55bc 7915 70bc
00000230: 8eb4 8cbc c390 a5bc db56 99bc 88e2 a1bc
00000240: 74c7 44bd f3e6 28bd cb8e d0bc 1130 23be
00000250: c9b4 b3bd 56e6 acbc 87f7 083c f02c 88bb
00000260: 9cc3 26bc b868 5ebb 3805 863b 394f 3abc
00000270: df40 aa3a 59c8 223c 6f41 8e3e 32f0 943b
00000280: 7694 9c3c 3045 643d 9b2f 07bc 0be1 44bd
00000290: 2c0e d5bd 8122 803b 90d7 b83c 3f3d a0bd
000002a0: 9fc2 2c3d 257c 383d b8cf 00bb d0fe bfbb
000002b0: 918e 90bc 823e 26bc d720 83bc 3551 0e3b
000002c0: 9c8b 1f3e 4933 0dbc 4345 b7bb 7d64 a2bc
000002d0: 7974 e03c 1d7e d73d 9e50 b33b 90b1 18bc
000002e0: 5eb6 fdbd ae5b 93bd 2f76 56bc 54e1 a43d
000002f0: 394b 123b 8e0c 7d3d 9afb 733d 1659 2c3d
00000300: 420c 383d ac15 413d b624 793c c653 c9bb
00000310: 445c ff3a 3aee 0f3c cdd7 b6bd c8a2 88bd
00000320: 4120 a3bd 5d5b 96bd 4e2a 28bd 0906 c0bd
00000330: 9cc4 8cbd 0259 3cbd cbfe cebd b446 853c
00000340: 0ada 9f3c ac3c f639 b2b0 b93c 28ae 043d
00000350: 846e f93b 638e a13a 0b29 29be 536b 863c
00000360: 4f40 4b3c 1907 4b3c 2877 293d db81 503a
00000370: 6aba ffbb b27b 673e 45fa 7d3b c25d 8c3b
00000380: 1dc4 393c 4b64 e3ba 9ebb 66b9 b079 83b9
00000390: 8547 3f3a 0cf9 953d 5283 99ba 53c0 c239
000003a0: c11c 40ba f672 e1ba af84 0c3c c38a b23c
000003b0: 138e 643b 0ad6 4a3c a74c b93e 2085 0c3c
000003c0: f0a5 ba3c 34be 8b3c 31af 133c 939b 293e
000003d0: 7975 0d3d 987d 563c 4162 ab3e 0f29 bbbc
000003e0: 6d1f b8bb b3ca 883b bbd8 4d3c 5cbc b53b
000003f0: 11e0 c93c b5f6 fa3c b884 ba3b 0e6c 833c
-0.008456779 -0.015916117 -0.056378994 -0.010216079 -0.14940837 -0.04644322 -0.037759326 -0.06529171
-0.012979119 0.0073359753 -0.010839716 -0.13964944 0.021248976 -0.015906263 -0.025825473 0.02707606
0.009957783 -0.0010026777 0.10578531 -0.014229206 -0.017358342 -0.04065283 -0.02276186 -0.009575035
-0.008466803 -0.007167882 -0.0011688846 -0.062434107 0.041825037 0.02894593 -0.08068428 -0.033928186
0.07697279 -0.056848887 0.03088234 0.03588876 0.016879624 0.021576148 0.023568282 0.010257401
0.028671142 0.022992576 0.022309272 0.02334053 0.03517488 -0.006485166 -0.017720325 -0.021287626
-0.0266513 -0.039087106 -0.049859673 -0.029313188 -0.05932125 -0.07916761 -0.019343402 -0.03408969
-0.024351405 -0.010205629 -0.029476706 -0.016035942 -0.011692364 -0.03077129 -0.023276828 -0.0005676132
-0.01419127 0.02578316 0.012495962 -0.012456464 0.07609781 0.019024642 0.14044978 0.114872135
-0.02607247 -0.024162674 -0.019418357 -0.028577114 0.22633983 -0.013883145 -0.009491104 -0.03432158
-0.015363314 0.122183576 0.1628843 0.063764036 -0.0075577064 0.0031195674 0.0058781956 0.0015263977
0.00208117 -0.000662274 0.001970979 0.05406654 0.06459709 -0.022918789 -0.006018038 0.048242312
-0.052552737 -0.063588634 -0.019361109 -0.0037524723 -0.007872992 -2.1315853e-05 0.004491726 -0.013260915
-0.00235383 0.031111173 0.04668873 0.17989288 6.1112865e-31 6.3038983e-31 6.650921e-31 5.851453e-31
5.993876e-31 6.2568047e-31 5.525985e-31 5.6688577e-31 5.858658e-31 -0.03270788 -0.028273093 -0.0021012381
-0.026040206 -0.18707636 -4.4254125e-06 -0.011420456 0.0084591685 -0.0043239496 -0.03914695 -0.009599942
-0.026054153 -0.057270925 -0.029889738 -0.028903132 -0.084564045 -0.032909118 -0.03593187 -0.011119445
-0.0015701323 -0.010926811 -0.013014099 -0.014653557 -0.017175939 -0.02021063 -0.018718174 -0.019761339
-0.048041776 -0.041235875 -0.025458714 -0.15936305 -0.087747164 -0.021105926 0.008359796 -0.0041557476
-0.010178473 -0.003393693 0.0040899776 -0.011371427 0.0012989304 0.009935462 0.27784297 0.004545235
0.01911376 0.055730045 -0.008251096 -0.04806618 -0.10403094 0.003910363 0.022563726 -0.07824182
0.042177793 0.04504027 -0.001965506 -0.0058592334 -0.017646106 -0.010146739 -0.01600687 0.0021715884
0.155806 -0.008618184 -0.0055929734 -0.019823307 0.027399288 0.10522101 0.005472257 -0.009319678
-0.123882994 -0.07195221 -0.013089701 0.080507904 0.0022322668 0.06177955 0.059566118 0.042077146
0.044933565 0.04713981 0.0152065065 -0.00614402 0.0019482453 0.008784825 -0.089278795 -0.06671673
-0.07965136 -0.07341645 -0.04105597 -0.09376151 -0.06873438 -0.045983322 -0.10107192 0.016269065
0.019513149 0.0004696598 0.022667263 0.03239265 0.0076120514 0.001232576 -0.16519563 0.016408598
0.012405469 0.012391829 0.041373402 0.000795392 -0.0078042047 0.2260578 0.0038753909 0.0042836377
0.011338261 -0.0017348615 -0.00022004402 -0.0002507693 0.0007296729 0.073228925 -0.001171211 0.00037145856
-0.00073285034 -0.0017200399 0.008576556 0.021794682 0.0034874722 0.012380132 0.36191294 0.008576661
0.022784203 0.01705847 0.009013937 0.16563253 0.03453586 0.013091467 0.334734 -0.022846727
-0.0056189806 0.0041745543 0.01256388 0.005546136 0.024642976 0.030635217 0.005692091 0.016042735
