online_iceocean/CNN_weights/NetworkB_weights_1982-2017_P2.pt (torch, 46815 bytes, 4 tensors)

conv_net.C1.weight f4 [32, 12, 1, 1]
0	0x3d89dc75	0.06731502
1	0x3e0cf9ed	0.13767214
2	0x3d286175	0.041108567
3	0x3e01f427	0.12690793
4	0x3de6f616	0.11277406
5	0x3e923968	0.28559422
6	0xbe0b7138	-0.13617408
7	0xbf360e8f	-0.71115965
8	0xbe89c1dc	-0.26905715
9	0x3e1a130a	0.15046325
10	0xbe4ccacf	-0.1999924
11	0xbf1b1492	-0.6057826
12	0xbd5ca220	-0.053865552
13	0xbf149186	-0.5803455
14	0xbe5f584e	-0.2181103
15	0x3e4ed361	0.20197822
16	0xbe17fb98	-0.14842069
17	0x3e9a67b5	0.30157247
18	0x3d25cbf0	0.040477693
19	0x3e0b230a	0.13587585
20	0x3dcb41eb	0.09924682
21	0x3eec8f7a	0.46203214
22	0x3e0ed89a	0.13949814
23	0xbcfb9f09	-0.030715482
24	0xbbcad71e	-0.0061901947
25	0x3ccafd96	0.024779122
26	0xbbf0d2e0	-0.007349357
27	0xbd98eb3c	-0.074667424
28	0x3d0ab3de	0.03386294
29	0xbda5b951	-0.08091987
30	0x3dc0f58b	0.094218336
31	0xbe4906df	-0.19631527
32	0xbe7af3d1	-0.24507071
33	0xbc87f915	-0.016598264
34	0xbdbaa049	-0.09112603
35	0x3f35d937	0.7103457
36	0xbddd91e9	-0.10818846
37	0x3e26477b	0.16238205
38	0xbdf1362d	-0.11777911
39	0x3cd05878	0.02543281
40	0xbe5612d6	-0.20905623
41	0xbe0970c3	-0.13421921
42	0xbe068d1d	-0.13139768
43	0x3e03a24c	0.1285488
44	0x3e5c8f9f	0.21539162
45	0x3eee6e3a	0.4656847
46	0x3c9f3352	0.019433651
47	0xbe8ebc4a	-0.27878028
48	0xbdb20ab6	-0.08693449
49	0xbdae5772	-0.085127726
50	0x3d646a62	0.055765517
51	0xbdafd318	-0.08585185
52	0xbb0e618d	-0.0021725625
53	0xbda9e6c9	-0.08295972
54	0x3d5a3d03	0.05328084
55	0xbf8cdaad	-1.1004235
56	0x3ed19329	0.40932587
57	0xbe826007	-0.25463888
58	0x3d88a990	0.066729665
59	0x3b1d7537	0.0024026164
60	0xbd50e281	-0.05099726
61	0x3b79c41c	0.0038111275
62	0xbd65d943	-0.0561154
63	0xbd8c89a5	-0.06862191
64	0xbcf847e4	-0.030307718
65	0xbd898f48	-0.06716782
66	0xbded2ff6	-0.115814134
67	0xbfb58aea	-1.4183018
68	0xbe9aa103	-0.30200967
69	0x3e5b1cb4	0.21397668
70	0x3cce7cf5	0.025206069
71	0x3eb9d41c	0.3629464
72	0xbe313b36	-0.17307743
73	0xbc3f3cbf	-0.011672198
74	0x3d14d0a3	0.036331784
75	0x3eaa5eb0	0.33275366
76	0xbdf9c55a	-0.12195845
77	0x3e9b8538	0.30375075
78	0xbe87ed59	-0.2654827
79	0x3ea3ffb4	0.32031024
80	0xbdedc06c	-0.11608967
81	0xbd1d663c	-0.038427576
82	0x3d32af54	0.043624237
83	0x3e950963	0.29108724
84	0x3ddb9422	0.107216135
85	0x3d77dd72	0.06051392
86	0xbe55028c	-0.20801753
87	0x3e266400	0.16249084
88	0xbd337155	-0.043809254
89	0xbbf8afa7	-0.0075892988
90	0xbe1593ee	-0.14607212
91	0x3e8dd10c	0.27698553
92	0xbe32b79f	-0.17452858
93	0x3ec92d6d	0.3929247
94	0xbdcbdfbf	-0.099547856
95	0x3d287231	0.041124526
96	0x3c440602	0.011964323
97	0xbf96c4b5	-1.177878
98	0xbf1a8601	-0.60360724
99	0xbdd0e3ec	-0.10199723
100	0xbbb14088	-0.005409304
101	0xbdfc3dde	-0.12316488
102	0xbe36e515	-0.17860825
103	0x3d015d55	0.03158315
104	0xbbaeaaea	-0.005330433
105	0xbe8928f0	-0.26789045
106	0xbe269462	-0.16267541
107	0x3d843d81	0.064570434
108	0xbc6b7502	-0.014371159
109	0x3cc3deaa	0.023909885
110	0xbc82bac3	-0.015958196
111	0x3bbbb294	0.0057280753
112	0xbb5baaf5	-0.0033518646
113	0x396242fd	0.00021577995
114	0x3d1f45e7	0.038885023
115	0x3e071dbc	0.13194937
116	0x3d83044c	0.06397304
117	0xbfc30978	-1.5237265
118	0xbdc49e8d	-0.09600554
119	0xbea7ece1	-0.32797912
120	0xbd4ce154	-0.050019577
121	0x3ceb039e	0.028688248
122	0xbdb347cc	-0.087539285
123	0xbe2a5f41	-0.16637899
124	0x3ca49345	0.020089755
125	0xbdfdcfb9	-0.123931356
126	0xbe161101	-0.14654924
127	0xbe5a939a	-0.21345368
128	0x3c362753	0.011117774
129	0xbeef9813	-0.4679571
130	0xbd1f4604	-0.03888513
131	0x3f41b1a3	0.7566168
132	0xbe746bb5	-0.23869212
133	0x3dd4d61d	0.10392401
134	0xbd279fac	-0.04092376
135	0x3e290c50	0.16508603
136	0x3d08eb3a	0.033427455
137	0x3ec713c4	0.38882267
138	0x3ba6d3f6	0.0050911857
139	0x3ea66af2	0.32503468
140	0xbcbab33b	-0.022790542
141	0x3efa7fac	0.4892553
142	0xbd0aaf1e	-0.03385841
143	0xbf6bf9d9	-0.9217811
144	0x3e107aa0	0.14109278
145	0xbd890531	-0.06690443
146	0xbd9720b1	-0.07379282
147	0x3e45526f	0.19269727
148	0xbd80c57a	-0.06287666
149	0x3d376229	0.044771347
150	0xbda1f001	-0.07907105
151	0xbf86aa5f	-1.0520743
152	0xbe55d5de	-0.20882365
153	0xbf1ac526	-0.60457075
154	0x3e166ab7	0.14689146
155	0xbe9a6838	-0.30157638
156	0x3b55a6f6	0.0032600737
157	0x3d21f3ac	0.039539024
158	0xbbe9a31f	-0.0071300413
159	0x3d1d64c1	0.038426165
160	0x3cbfe17f	0.023422955
161	0xbfcb3344	-1.587502
162	0xbea84da5	-0.32871738
163	0x3d70c87e	0.058784954
164	0x3d286883	0.041115295
165	0xbdc33775	-0.09532062
166	0x3cdf43ef	0.027254073
167	0xbe832176	-0.25611466
168	0x3de2e5a7	0.11078959
169	0xbd754b6e	-0.05988639
170	0xbda1716e	-0.07882963
171	0xbe82644c	-0.25467145
172	0xbe07677f	-0.13223074
173	0xbf76321a	-0.961702
174	0x3ef0357d	0.46915808
175	0xbe6e2f6a	-0.23260275
176	0x3dfdb32d	0.12387691
177	0xbbd5ae72	-0.0065210396
178	0x3c8e060e	0.017336871
179	0x3d91c440	0.0711751
180	0x3ce37f12	0.027770553
181	0x3d933c7b	0.0718927
182	0xbd0e468b	-0.034735244
183	0xbf94c0c2	-1.1621325
184	0xbe440484	-0.19142348
185	0x3d909f5a	0.07061644
186	0x3e016408	0.12635815
187	0x3ea7eefd	0.3279952
188	0x3ca98346	0.020692479
189	0xbda557e0	-0.080734015
190	0x3de7cc55	0.1131827
191	0x3cf54105	0.02993823
192	0xbe1f8cde	-0.1558108
193	0xbe4bd487	-0.19905291
194	0x3db6c3ec	0.08924088
195	0x3def0a73	0.11671915
196	0x3e66a1ef	0.2252271
197	0xbf40c32f	-0.75297827
198	0xbe5bf86a	-0.21481481
199	0xbcdf5e14	-0.02726654
200	0xbe16e2b1	-0.14734913
201	0x3dc40504	0.09571269
202	0xbddfc0f5	-0.109254755
203	0xbecd7e61	-0.40135482
204	0xbbdae143	-0.0066796853
205	0xbfddeec6	-1.7338493
206	0x3c11c272	0.008896457
207	0xbd402326	-0.04690852
208	0x3d52382b	0.051323097
209	0xbdc51356	-0.09622829
210	0xbdc36f8c	-0.0954276
211	0x3d3c4892	0.045967646
212	0xbd8c692e	-0.06855999
213	0xbda69691	-0.08134187
214	0xbd1e159b	-0.038594823
215	0x3e2d1f0f	0.16906379
216	0x3e08c19c	0.13355106
217	0x3d0d721a	0.034532644
218	0xbc8f76fc	-0.01751279
219	0xbae3a44d	-0.0017367691
220	0xbe40a199	-0.18811645
221	0xbdd5243e	-0.10407303
222	0xbda67fbb	-0.081298314
223	0x3dbc1075	0.091828264
224	0xbe3942b9	-0.18091859
225	0xbed405aa	-0.4141057
226	0xbe8a9909	-0.27069882
227	0xbe9545ba	-0.2915476
228	0x3d939a9f	0.07207226
229	0xbd8a5c83	-0.067559265
230	0xbd75acbf	-0.059979197
231	0xbf43138f	-0.7620172
232	0xbe98addc	-0.29820144
233	0x3ea556b0	0.322927
234	0xbe559a16	-0.2085956
235	0xbead2cb8	-0.3382318
236	0xbe6ed2d2	-0.23322609
237	0x3b2906a9	0.0025791323
238	0xbe4401b1	-0.1914127
239	0x3ea89558	0.3292644
240	0x3b861455	0.0040917792
241	0x3e82087b	0.25397095
242	0xbd78f84d	-0.060783673
243	0x3e847f89	0.25878552
244	0xbcd31979	-0.025768982
245	0x3e200107	0.15625392
246	0x3e5390bd	0.20660682
247	0xbdaa6ca2	-0.08321501
248	0xbe215689	-0.15755667
249	0x3e85f21b	0.26161274
250	0x3d271a6a	0.040796675
251	0xbea3fcd3	-0.32028827
252	0x3f0ab54d	0.54182893
253	0xbf644ac3	-0.8917658
254	0x3d8730f6	0.066011354
255	0x3dc7fccf	0.09765016

conv_net.C2.weight f4 [64, 32, 1, 1]
0	0x3e042b4d	0.12907143
1	0x3c51bcbf	0.012801348
2	0x3d578c2c	0.052623913
3	0xbebe6bf7	-0.37191746
4	0x3dab96bc	0.0837836
5	0x3f11eaf6	0.56999147
6	0xbe0fbba1	-0.14036418
7	0xbdfef405	-0.12448887
8	0xbbe83118	-0.0070859306
9	0x3dbbed6e	0.091761455
10	0xbe974172	-0.29542118
11	0x3c9a69c4	0.018849261
12	0xbdad335d	-0.084570624
13	0xbd0d030d	-0.034426738
14	0x3e00f506	0.12593469
15	0xbe34922e	-0.17633888
16	0x3e217f43	0.15771203
17	0xbe5fac40	-0.21843052
18	0xbd327662	-0.04356993
19	0x3d0c01a3	0.03418125
20	0x3ebf5a74	0.37373698
21	0x3d94c83a	0.07264753
22	0x3daa57bf	0.083175175
23	0x3e6a97fc	0.2290954
24	0xbe9d3521	-0.30704597
25	0x3d6d72e0	0.05797088
26	0xbd9e8062	-0.07739331
27	0xbdeb0214	-0.11475006
28	0x3dbd1810	0.09233105
29	0xbbd7af57	-0.0065821814
30	0xbda0a79d	-0.0784447
31	0xbd8b56d3	-0.0680367
32	0xbde9ce7b	-0.11416336
33	0x3db7aa69	0.0896805
34	0x3da75d12	0.08172049
35	0xbdbd539c	-0.09244463
36	0xbde24d73	-0.110499285
37	0xbc99da3d	-0.018780822
38	0xbd610043	-0.05493189
39	0x3d3451b5	0.044023234
40	0xbe76bdc5	-0.24095829
41	0xbe85febe	-0.26170915
42	0xbe153550	-0.14571118
43	0x3e62d2aa	0.22150674
44	0x3c15ba57	0.009138665
45	0xbe2e3b14	-0.17014724
46	0x3dbb4511	0.09144033
47	0xbef43256	-0.47694653
48	0xbcb1facd	-0.021726036
49	0xbeac727b	-0.33681092
50	0xbd92f46e	-0.071755275
51	0x3d4262f9	0.04745767
52	0xbe85780c	-0.2606815
53	0xbeb77cec	-0.35837495
54	0xbe386e6f	-0.18010877
55	0x3e044ed8	0.12920702
56	0x3e8c9eff	0.27465054
57	0x3d84398e	0.0645629
58	0x3e270729	0.16311325
59	0xbdf69882	-0.12040807
60	0xbe0e7313	-0.13911085
61	0xbe597000	-0.21234131
62	0xbd0c4906	-0.034249328
63	0xbe2a4413	-0.16627531
64	0xbe03b950	-0.1286366
65	0x3cad3ae3	0.021146243
66	0x3daa375e	0.08311342
67	0x3d56d75e	0.052451484
68	0x3e1e2b97	0.15446316
69	0xbe3de137	-0.18542944
70	0x3e3f8e49	0.18706621
71	0xbb9a0aa5	-0.004700976
72	0xbccaf8de	-0.024776872
73	0x3e5c6170	0.21521544
74	0xbe369a96	-0.17832407
75	0xbe3f294f	-0.18668102
76	0x3d67d896	0.056603037
77	0x3d8e98ec	0.06962761
78	0x3e8e14e1	0.27750304
79	0x3db02974	0.086016566
80	0xbe8f5677	-0.27995655
81	0xbeb93fb7	-0.36181423
82	0xbe333916	-0.17502245
83	0x3e742340	0.23841572
84	0xbe6b368b	-0.22970025
85	0x3e9527cb	0.29131922
86	0xbe2011f8	-0.15631855
87	0x3e955c1b	0.29171833
88	0x3d30938f	0.043109473
89	0xbd1e8e2b	-0.0387098
90	0x3e871cd4	0.26389182
91	0x3d333124	0.043748036
92	0xbd92c6dd	-0.071668364
93	0x3e213b5d	0.15745302
94	0xbea386a6	-0.31938666
95	0xbe21489f	-0.15750359
96	0xbdb721b8	-0.08941978
97	0xbe83afd8	-0.25720096
98	0xbd8a20de	-0.0674455
99	0xbe4a7d92	-0.19774464
100	0xbe1672d6	-0.14692244
101	0x3e4c683f	0.19961642
102	0xbdc50092	-0.096192494
103	0xbee7f7b2	-0.45306164
104	0xbeb659d5	-0.3561541
105	0xbe600c52	-0.218797
106	0x3e2fd91c	0.17172664
107	0x3d99a247	0.07501655
108	0xbe45211c	-0.19250911
109	0x3c9860df	0.01860088
110	0x3d19e831	0.03757495
111	0x3eb673f0	0.35635328
112	0xbc9d82d4	-0.019227423
113	0xbda10d23	-0.07863834
114	0x3e5aa5e2	0.21352342
115	0x3e967516	0.29386204
116	0xbdbddc66	-0.09270553
117	0xbcf092f8	-0.029366955
118	0xbc2ee932	-0.010675715
119	0x3e124620	0.14284563
120	0x3e3e478a	0.18581977
121	0xbe0bf8d2	-0.13669136
122	0x3e869eb9	0.2629297
123	0x3d9ec38c	0.07752141
124	0x3e1de40e	0.15419027
125	0x3e83fd1d	0.25779048
126	0xbe120a5c	-0.14261764
127	0x3e0d0416	0.1377109
128	0x3e64f513	0.22359113
129	0x3e6b588a	0.22982994
130	0xbd9b9ca0	-0.07598233
131	0xbe018ef5	-0.1265219
132	0xbe5067e9	-0.20352139
133	0x3d27ad91	0.04093701
134	0x3d0a5925	0.03377642
135	0xbe4f2e60	-0.20232534
136	0xbf47fdb9	-0.78121525
137	0x3ec2437c	0.37942111
138	0x3d74d4f3	0.059773397
139	0x3ec6907b	0.38782105
140	0x3e2c53d1	0.16828848
141	0xbe260bfe	-0.16215512
142	0xbebd31b3	-0.3695198
143	0xbd126cc3	-0.035748255
144	0x3da537ef	0.08067309
145	0x3e5111f2	0.20417002
146	0xbcbd6ca0	-0.023123085
147	0xbdc1ad93	-0.09456935
148	0x3e233ee0	0.15941954
149	0x3db98279	0.09058089
150	0x3dcd3f6b	0.10021862
151	0xbe207cb2	-0.15672567
152	0xbe7c3fae	-0.24633667
153	0xbdb01293	-0.08597293
154	0xbdeed5a2	-0.11661841
155	0x3e0b52c8	0.13605797
156	0x3b22734e	0.0024787965
157	0xbcbebd78	-0.023283705
158	0xbd8666d8	-0.06562585
159	0x3e03fe10	0.12889886
160	0xbd87de97	-0.066342525
161	0xbda920ab	-0.08258184
162	0x3e1bc2e6	0.15211067
163	0x3e132583	0.14369778
164	0xbd742386	-0.05960419
165	0xbe8e3f22	-0.27782542
166	0x3d9b01b3	0.075686835
167	0xbd20a0c5	-0.03921582
168	0x3e1287f1	0.1430967
169	0xbd3647e2	-0.044502147
170	0x3db97f8f	0.09057533
171	0xbedec87a	-0.43512326
172	0x3d1dcbff	0.038524624
173	0xbdbba40a	-0.09162147
174	0xbec8a1fe	-0.3918609
175	0x3dcc71ad	0.099826194
176	0xbd8d7900	-0.069078445
177	0x3e881f87	0.26586553
178	0x3d446faf	0.047958072
179	0xbe53d6f9	-0.20687474
180	0xbe84b223	-0.25917158
181	0xbe4bd141	-0.19904043
182	0x3d9dd088	0.0770579
183	0xbeac5f24	-0.33666337
184	0x3b8284ce	0.0039831167
185	0x3e2eb9bf	0.17063044
186	0x3cd976cf	0.02654591
187	0x3d4ad329	0.049517784
188	0x3e5d2981	0.21597864
189	0xbd7ab86b	-0.06121103
190	0xbeb368f1	-0.35041
191	0x3b3d909f	0.0028925312
192	0xbde1cdc0	-0.11025572
193	0x3de686cb	0.112561785
194	0x3d7306b3	0.05933256
195	0xbe452199	-0.19251098
196	0x3e81e27f	0.25368115
197	0xbdd72625	-0.10505322
198	0xbd231c30	-0.039821804
199	0xbe16a4f7	-0.14711367
200	0xbda75520	-0.08170533
201	0x3de9ee0c	0.11422357
202	0x3ea9f1f0	0.33192396
203	0xbdc17981	-0.09447003
204	0xbd768bc2	-0.060191877
205	0xbe850685	-0.25981537
206	0x3e8a574e	0.27019733
207	0x3dc5aa09	0.09651572
208	0xbde1089b	-0.109879695
209	0xbd623866	-0.055229567
210	0x3ca48ff3	0.020088172
211	0xbda4c631	-0.080456145
212	0xbdd3f0bd	-0.103486516
213	0xbe6b717b	-0.22992508
214	0x3e94280c	0.28936803
215	0xbe970a7e	-0.29500192
216	0x3c95d622	0.018290583
217	0x3966cf3a	0.00022011707
218	0x3ea4a06b	0.3215364
219	0xbde51f13	-0.111875676
220	0xbcc987a6	-0.024600815
221	0xbd25a59e	-0.040441148
222	0x3d1067f1	0.035255376
223	0xbcd31193	-0.025765216
224	0xbd7df025	-0.061996598
225	0xbea5efc0	-0.32409477
226	0x3e3d9e62	0.1851745
227	0xbebe84ec	-0.37210786
228	0xbe5633d9	-0.20918216
229	0xbd97bbfd	-0.07408903
230	0xbe43d6e9	-0.1912495
231	0x3e8eb4b6	0.27872247
232	0x3cf6298f	0.030049114
233	0x3cd5cb2d	0.026097858
234	0x3e4352d5	0.19074567
235	0x3d71a240	0.058992624
236	0xbd615a05	-0.05501749
237	0x3ebc6eb6	0.36803216
238	0x3da59768	0.08085519
239	0xbebbdb3e	-0.36690706
240	0xbcd3fcf8	-0.02587746
241	0x3da341f2	0.079715624
242	0x3da50f3c	0.08059546
243	0xbec60d57	-0.38682052
244	0x3cd36f8d	0.025810027
245	0x3e114cd8	0.1418947
246	0x3d3d0fd5	0.046157677
247	0x3cff8dc3	0.031195527
248	0xbe1a769c	-0.15084308
249	0x3e310e9f	0.17290734
250	0xbebd4550	-0.36966944
251	0x3e291228	0.16510832
252	0x3e6157d9	0.22006167
253	0xbdc04c8b	-0.093895994
254	0xbe14222a	-0.14466158
255	0x3e8fdecd	0.2809967

conv_net.C3.weight f4 [128, 64, 1, 1]
0	0xbe0c7253	-0.13715486
1	0xbcea1ce2	-0.028578226
2	0x3c86545a	0.016397644
3	0xbba61db2	-0.005069458
4	0xbe1b4c23	-0.15165763
5	0x3e622add	0.22086664
6	0x3da2aedc	0.07943508
7	0xbda3269c	-0.079663485
8	0x3cd7612d	0.026291454
9	0xbd03d52c	-0.03218572
10	0x3cff3c9f	0.031156836
11	0xbc2c88a0	-0.010530621
12	0x3dee5dba	0.11638971
13	0xbed30d92	-0.4122129
14	0xbd235ab1	-0.039881412
15	0xbe2ef50e	-0.17085668
16	0x3dbb7826	0.09153776
17	0xbe185118	-0.14874685
18	0x3cf24f1f	0.029578744
19	0xbdb11e28	-0.0864833
20	0xbceca503	-0.028887277
21	0xbdcb1dd5	-0.099177994
22	0xbd8fc0e8	-0.07019216
23	0xbd75d601	-0.060018543
24	0x3cde005e	0.027099784
25	0xbdae0263	-0.08496549
26	0x3e3b8b19	0.1831478
27	0x3c66266d	0.014047247
28	0xbaa91c50	-0.0012902115
29	0xbe468f69	-0.19390644
30	0x3d660d59	0.056165073
31	0xbd2f688a	-0.042824306
32	0xbe81992f	-0.25312182
33	0xbc5a5fa5	-0.0133284675
34	0x3e2e39b7	0.17014204
35	0xbdaf2e98	-0.08553809
36	0xbd4ce566	-0.05002346
37	0xbd218add	-0.03943907
38	0x3da88ad6	0.08229606
39	0xbddba550	-0.1072489
40	0xbd434c5d	-0.047680248
41	0x3cbeb47a	0.023279417
42	0xbd0aedae	-0.033918075
43	0xbd2dbc43	-0.04241587
44	0x3c38a811	0.011270539
45	0xbe938b3d	-0.28817168
46	0x3dca0033	0.09863319
47	0xbcca9227	-0.024727894
48	0xbe0cac30	-0.1373756
49	0xbdab3167	-0.08359032
50	0x3d3c55da	0.045980312
51	0xba9c81f4	-0.0011940585
52	0x3cd2da03	0.025738722
53	0x3e80082d	0.25006238
54	0xbdd9e977	-0.10640233
55	0xbdf26bc9	-0.11836965
56	0x3d5c1567	0.05373135
57	0xbccc6ccb	-0.02495422
58	0xbdc45f1c	-0.09588453
59	0x3bbf5c94	0.0058398936
60	0x3cf33bcf	0.029691605
61	0xbdefa3eb	-0.11701187
62	0x3db51155	0.088411964
63	0xbdda9495	-0.10672871
64	0xbda31335	-0.07962648
65	0xbb832442	-0.004002125
66	0xbe1da711	-0.15395762
67	0x3bd78229	0.0065767956
68	0xbe129e6c	-0.14318246
69	0x3c10720c	0.008816253
70	0xbdf1a800	-0.117996216
71	0xbe0499c7	-0.12949286
72	0x3bffbef1	0.0078047444
73	0xbd0b7204	-0.03404428
74	0xbd942374	-0.07233325
75	0xbbbba293	-0.0057261675
76	0x3d7b28e2	0.061318286
77	0xbab41b27	-0.0013741002
78	0xbc45b5bf	-0.012067257
79	0x3dd6c60a	0.10486992
80	0xbdb48cc2	-0.0881591
81	0x3daacf7a	0.08340354
82	0xbc79af64	-0.01523957
83	0x3c824cdc	0.01590579
84	0x3e5dfb5b	0.21677916
85	0xbd4f5e9f	-0.050627347
86	0x3ca90edc	0.020636968
87	0x3bbd1300	0.0057700872
88	0xbe451c1b	-0.19249003
89	0xbd96c434	-0.073616415
90	0xbe198646	-0.14992628
91	0x3aabe94f	0.0013115796
92	0x3e381057	0.17974983
93	0x3e754972	0.23953798
94	0xbd9374a2	-0.0719998
95	0x3d84c86c	0.0648354
96	0xbe61fdf6	-0.22069535
97	0x3e0569de	0.13028666
98	0xbd8e3968	-0.06944543
99	0xbe497a9a	-0.19675675
100	0xbdef0908	-0.116716444
101	0xbc996b49	-0.018727915
102	0x3c7cf5dc	0.015439477
103	0xbe28c161	-0.16480018
104	0xbda82288	-0.08209711
105	0xbe0e47c3	-0.13894562
106	0x3a997140	0.0011706725
107	0x3c91d5dc	0.017802171
108	0xbe3c9702	-0.1841698
109	0xbcb8e1c3	-0.02256859
110	0xbe357339	-0.17719735
111	0xbd4c4307	-0.04986861
112	0x3e017fce	0.1264641
113	0x3cc58aba	0.024114002
114	0xbd4a3074	-0.049362615
115	0x37a1c1dd	1.928297e-05
116	0xbe520397	-0.20509182
117	0xbce36b57	-0.027761145
118	0x3cfa5f11	0.03056291
119	0xbe0dc72a	-0.13845506
120	0x3b4bf80c	0.003112319
121	0x3bd56e25	0.0065133744
122	0x3ba231c9	0.0049497825
123	0x3ba74b50	0.0051054135
124	0xbe4b1eff	-0.19836043
125	0x3df947c0	0.12171888
126	0xbd5a13ec	-0.053241655
127	0xbc6747da	-0.014116252
128	0xbd0b7a71	-0.034052316
129	0xbe59d885	-0.21274002
130	0xbea55d71	-0.32297853
131	0xbd8047c7	-0.062636904
132	0x3e9148d3	0.28375873
133	0x3a08763a	0.00052056054
134	0x3d5ce569	0.05392972
135	0xbbdf2c4b	-0.0068107
136	0xbe2ba791	-0.1676314
137	0xbd4284dd	-0.04748999
138	0xbdf1cbbf	-0.118064396
139	0xbdd31b7a	-0.10307975
140	0x3b31b143	0.0027113713
141	0xbdd045e6	-0.10169582
142	0x3da16e87	0.078824095
143	0xbe9b8963	-0.30378255
144	0xbd6a2f60	-0.057174087
145	0x3e03d6db	0.1287493
146	0x3d00c022	0.031433232
147	0xbd78bc75	-0.0607266
148	0xbe4b4695	-0.19851144
149	0xbdd3a63d	-0.10334442
150	0xbe441c92	-0.19151524
151	0xbdcc03da	-0.09961672
152	0xbd8d1a6a	-0.06889804
153	0xbec29fb6	-0.38012475
154	0x3d404e77	0.04694983
155	0xbb7091a1	-0.0036707895
156	0x3d5a6e9e	0.05332815
157	0xbbdf4afa	-0.006814358
158	0xbddfd127	-0.109285645
159	0x3ab7a26d	0.0014010199
160	0xbe03a1a4	-0.1285463
161	0x3d85fb13	0.06542029
162	0xbda9cddf	-0.0829122
163	0x3ccc484b	0.024936816
164	0xbd4d4006	-0.050109886
165	0xbdb3ecd4	-0.08785406
166	0x3d0f6259	0.0350059
167	0xbba17079	-0.004926738
168	0x3e10e985	0.1415158
169	0xbad4832e	-0.0016213411
170	0x3dc1d6f6	0.09464829
171	0x3e2e0521	0.16994144
172	0x3e0e4a8e	0.13895628
173	0xbbfa730c	-0.007643109
174	0xbd8b9e67	-0.06817322
175	0x3e5c2b6c	0.21500939
176	0xbdf2bcb1	-0.11852396
177	0x3c407474	0.011746515
178	0xbe7a0292	-0.24415043
179	0x3cc3a7b5	0.02388368
180	0x3ddec95f	0.10878252
181	0xbe2d43ca	-0.1692039
182	0xbd9dd279	-0.0770616
183	0xbe2119bf	-0.15732478
184	0x3d6c8d38	0.057751864
185	0xa83df0e5	-1.0543843e-14
186	0xbc047ff6	-0.008087149
187	0xbd9a6a12	-0.075397626
188	0xbe3082ba	-0.17237368
189	0x3c92aa2c	0.01790341
190	0xbca07572	-0.019587252
191	0x3d56c735	0.052436072
192	0xbbc61cf3	-0.0060459315
193	0xbcc7b2f9	-0.024377333
194	0xbd5cefbc	-0.053939566
195	0x3bbe98f0	0.0058165714
196	0xbcee35e8	-0.029078439
197	0xbcb05519	-0.021524953
198	0x3b765c86	0.003759177
199	0xbe17cdc2	-0.14824584
200	0xbcf3a060	-0.029739559
201	0xbaf56efd	-0.0018725094
202	0x3e818c2b	0.25302252
203	0x3d8a1105	0.067415275
204	0x3df79a27	0.12089949
205	0xbe2a741f	-0.16645859
206	0x3c98810c	0.018616222
207	0x3d49604e	0.04916411
208	0xbe4b0358	-0.19825494
209	0x3d26a26e	0.04068225
210	0x3cf300f2	0.029663537
211	0xbe24e4d9	-0.16102923
212	0xbc8e2546	-0.017351758
213	0xbdeab6f3	-0.11460676
214	0xbe17a42c	-0.1480872
215	0xbde92583	-0.11384108
216	0xbe0b1335	-0.13581546
217	0xbe0f94c5	-0.14021595
218	0x3e067240	0.1312952
219	0xba320c19	-0.0006791964
220	0xbd199642	-0.037496813
221	0xbb19e417	-0.00234819
222	0xbdbff7b0	-0.093734145
223	0xbe2ae962	-0.16690591
224	0xbe4d0a24	-0.200234
225	0x3e113dc0	0.14183712
226	0xbb66abf2	-0.0035197702
227	0x3d958a61	0.07301784
228	0xbd17e25a	-0.0370811
229	0xbde43d4e	-0.111445054
230	0xbe7a1b3b	-0.2442445
231	0x3b4b395b	0.0031009528
232	0xbe9baba0	-0.30404377
233	0xbd017b7a	-0.031611897
234	0xbc89ed71	-0.016836854
235	0x3d03d915	0.032189447
236	0x3d46de99	0.04855213
237	0xbd350345	-0.04419257
238	0xbbfc9cab	-0.007709106
239	0xbd0eb2f3	-0.034838628
240	0xba1c639b	-0.000596577
241	0xbcab53de	-0.020914014
242	0xbd1ec4b8	-0.038761824
243	0x393e30c7	0.00018137983
244	0x3d114b62	0.03547228
245	0xbe4b563b	-0.19857113
246	0xbd272d9e	-0.04081499
247	0xbe3eb221	-0.18622638
248	0xbd40d3cd	-0.04707699
249	0xbccd26fe	-0.025043007
250	0xbc199cbc	-0.009375747
251	0xbd3a7707	-0.04552367
252	0xbdeaee91	-0.11471284
253	0xbad6c77c	-0.0016386355
254	0xbe2d5c2f	-0.16929697
255	0x3e12dff1	0.1434324

conv_net.C4.weight f4 [5, 128, 1, 1]
0	0x3c618172	0.013763772
1	0x3c0ca07b	0.008583183
2	0x3de557ed	0.11198411
3	0xbc51c32e	-0.012802882
4	0xbc184b83	-0.009295347
5	0xbc2d29fc	-0.010569092
6	0x3da21332	0.079138175
7	0xbddf1a59	-0.10893697
8	0xbc3151a6	-0.010822689
9	0x3c75a8f7	0.014993898
10	0xbc6fac42	-0.014628472
11	0xbdd49028	-0.10379058
12	0xbe404492	-0.18776157
13	0xbc33ff46	-0.010986155
14	0xbbaaeafc	-0.0052160006
15	0x3d8be6ff	0.068311684
16	0x13bfb599	4.8394248e-27
17	0x3c858083	0.01629663
18	0x382239bd	3.8677583e-05
19	0x3da40635	0.080089964
20	0xbe4a4867	-0.19754182
21	0x3e93f9f8	0.2890165
22	0x3edb3648	0.4281485
23	0xbc2cd38a	-0.010548482
24	0x3cdba555	0.026812235
25	0xbc89d0e1	-0.016823234
26	0xbd869602	-0.065715805
27	0xbd8ef4cf	-0.06980287
28	0xbd40f907	-0.04711249
29	0xbda11819	-0.078659244
30	0xbd1be6b2	-0.038061805
31	0x3d21ae92	0.039473124
32	0x3cf2480b	0.029575368
33	0x3ebc14a9	0.36734512
34	0xbd22d1a1	-0.0397507
35	0x3ba4c6be	0.0050285747
36	0xbe25b0ac	-0.16180676
37	0x3bce81b2	0.006302082
38	0x3cc47b9b	0.02398472
39	0x3e289c0f	0.16465782
40	0x3ab3566b	0.0013682371
41	0x3d0cb7cc	0.03435497
42	0xbd1b9b14	-0.03798969
43	0x3d1b3705	0.037894268
44	0x3bb334ce	0.0054689413
45	0xbccb3f72	-0.024810527
46	0x3d158ed2	0.036513157
47	0x3bb4873d	0.0055092857
48	0xbe2ad338	-0.16682136
49	0xbde51e0d	-0.11187372
50	0xbc72399c	-0.014784243
51	0x3d21bb5f	0.03948533
52	0x3d91816d	0.07104764
53	0x3ca34aa3	0.01993305
54	0xbbb3a5a1	-0.005482391
55	0xbc4ce3c4	-0.012505475
56	0x3cca9165	0.024727533
57	0xbdf2f0c1	-0.118623264
58	0x3a962915	0.0011456335
59	0x3c15904f	0.009128644
60	0x3da40fa6	0.08010797
61	0x3afe6e0d	0.001941146
62	0x3cc39e00	0.023879051
63	0xbd1b22b0	-0.037874877
64	0x84498f72	-2.3693303e-36
65	0xbdade217	-0.08490389
66	0xbbfa03eb	-0.0076298616
67	0x3e353b32	0.17698362
68	0xbdf8f220	-0.12155557
69	0x3c9ea029	0.01936348
70	0x3d40c917	0.047066774
71	0x3bf3f50a	0.0074449824
72	0x3c84276a	0.016132075
73	0x3ce18685	0.027529964
74	0xbb3a12a1	-0.0028392451
75	0xbcfe7626	-0.031062197
76	0xbc40836b	-0.0117500825
77	0xbd1c69a6	-0.03818669
78	0xbe2eecba	-0.17082492
79	0xbbf39bf2	-0.0074343616
80	0xbb318ee9	-0.0027093238
81	0x3cd5c411	0.026094468
82	0xbb87b7e7	-0.004141796
83	0xbc6af789	-0.014341244
84	0xba489d5b	-0.00076528423
85	0x3c5fbda2	0.013656052
86	0x3e63c28f	0.22242187
87	0x3962d29e	0.000216315
88	0xbcad7e2f	-0.021178333
89	0xbbc59462	-0.0060296515
90	0xbb3648ab	-0.002781431
91	0xbe328b5c	-0.17435974
92	0xbbaa9c35	-0.0052066096
93	0x3c80685c	0.015674762
94	0xbca302de	-0.019898828
95	0x3d22f86f	0.039787706
96	0x3c227921	0.009916575
97	0xbcc0ae3b	-0.02352058
98	0xbd2efacd	-0.04271965
99	0xbc19f554	-0.00939687
100	0xbcdb5502	-0.026773933
101	0xbe17cc30	-0.14823985
102	0xbd41956d	-0.047261644
103	0xbc012f4f	-0.007884814
104	0x3d80868e	0.06275664
105	0x3ccbd443	0.024881488
106	0x3cc45f8e	0.023971345
107	0x3ca9eec4	0.020743735
108	0x3cea583e	0.02860653
109	0xbe384c7f	-0.17997931
110	0xbddb750f	-0.107156865
111	0xbb740578	-0.0037234705
112	0x3ac3e821	0.0014946499
113	0x3e55b1d1	0.20868613
114	0xbe837802	-0.25677496
115	0x3da5f253	0.0810286
116	0x3d484859	0.04889712
117	0xbda8619d	-0.08221743
118	0xbce9705e	-0.028495964
119	0xbdcb0d08	-0.09914595
120	0xbd111102	-0.03541661
121	0x3cba2997	0.02272491
122	0x3e04e46d	0.12977763
123	0x3d6a1c63	0.057155978
124	0x3d494fe2	0.049148448
125	0x3dfa0076	0.12207119
126	0xbe5baeb6	-0.21453366
127	0x3b310064	0.002700829
128	0x3cf5ca0b	0.030003568
129	0x3cd8540f	0.02640727
130	0xbe74e99f	-0.23917244
131	0xbea70331	-0.32619622
132	0x3c970543	0.018435126
133	0x3e14ec98	0.14543378
134	0x3d793425	0.060840745
135	0xbe03633b	-0.12830822
136	0xbc3d86f8	-0.011567824
137	0xbdacc1d8	-0.0843541
138	0xbd00f324	-0.031481877
139	0xbdb2157d	-0.08695505
140	0x3e01d486	0.12678728
141	0x3e12ca0d	0.14334889
142	0xbc51babd	-0.0128008695
143	0xbe0936ef	-0.13399862
144	0x13ce5fe4	5.2096266e-27
145	0x3dcbc956	0.09950511
146	0xbd159e03	-0.036527645
147	0x3c12fd92	0.008971589
148	0x3e12a88b	0.14322107
149	0xbe750fd2	-0.23931816
150	0xbec50ff9	-0.3848875
151	0xbc8e79d3	-0.017392075
152	0x3cb93e6e	0.022612777
153	0x3dab84cd	0.08374939
154	0xbd1b8460	-0.03796804
155	0xbd029ebc	-0.031889662
156	0xbc6c4b22	-0.01442221
157	0x3e30ee44	0.17278391
158	0xbd6a3be4	-0.057186022
159	0xbe21633b	-0.1576051
160	0xbe8ff341	-0.28115276
161	0xbea93987	-0.33051702
162	0x3c7161f0	0.014732823
163	0xbbd39baa	-0.0064577656
164	0x3dc6878a	0.09693821
165	0x3d439a7d	0.047754753
166	0xbdae7fb5	-0.08520452
167	0xbd59a817	-0.05313882
168	0x3b623732	0.0034517762
169	0x3d162e9a	0.036665536
170	0xbb842760	-0.004033014
171	0xbe0fa32f	-0.14027093
172	0xbcb7af2d	-0.022422398
173	0xbc8c44f0	-0.017122716
174	0x3d457939	0.04821131
175	0x3e314657	0.17311989
176	0x3e3f9e9e	0.18712851
177	0x3e1e191c	0.15439266
178	0xbe28bbf9	-0.16477956
179	0x3e06cef7	0.13164888
180	0x3d6530e7	0.05595484
181	0xbc6f1d05	-0.014594321
182	0x3cff3df6	0.031157475
183	0xbe0cde61	-0.13756706
184	0xbc275b92	-0.010214703
185	0x3cf3be78	0.029753909
186	0x3d08e61d	0.033422578
187	0xbb494e4e	-0.003071684
188	0xbe1c4e73	-0.15264301
189	0xbcb661c9	-0.022263424
190	0x3c034103	0.0080111055
191	0xbc9e12f9	-0.019296156
192	0x845699fd	-2.5226287e-36
193	0xbd264bf0	-0.040599763
194	0xbbf914bb	-0.007601348
195	0xbd75d592	-0.06001813
196	0x3e613274	0.21991903
197	0xbe541683	-0.20711713
198	0xbd15ae3f	-0.036543127
199	0x3b693e1b	0.0035589996
200	0x3cb1ddf3	0.021712279
201	0x3d1008fc	0.03516482
202	0x3c1c5569	0.009541848
203	0xbd4fe4de	-0.050755374
204	0x3cc52814	0.024066962
205	0xbd3e0223	-0.046388756
206	0x3d30c138	0.043153018
207	0xbca939c9	-0.020657437
208	0xbc418c02	-0.011813166
209	0x3e82d8b7	0.25555965
210	0x3dc35efb	0.095396005
211	0xbd2212db	-0.039568763
212	0x3abe5732	0.0014521836
213	0x3ada88ac	0.0016672811
214	0xbe357a95	-0.17722543
215	0xbb80f8cf	-0.0039359103
216	0xbc8cc7c6	-0.017185103
217	0xbd061e8c	-0.032743976
218	0xbc26bc5b	-0.010176743
219	0x3da2a924	0.07942417
220	0xbb0ac428	-0.0021174047
221	0xbd28d510	-0.041218817
222	0xbd724119	-0.059144113
223	0xbe5098de	-0.20370814
224	0x3de7d2ec	0.11319527
225	0xbd311a5c	-0.04323803
226	0xbd120117	-0.03564557
227	0xbae3c242	-0.0017376619
228	0xbd96a2bd	-0.073552586
229	0x3e0243cf	0.1272118
230	0xbd380746	-0.04492881
231	0x3e0a7fbd	0.13525291
232	0x3d232953	0.03983433
233	0x3d6cad70	0.05778259
234	0xbdd5a685	-0.10432152
235	0xbe43464b	-0.19069783
236	0x3d2ab2b5	0.041674335
237	0xbcc98662	-0.024600212
238	0x3d00b5f1	0.031423513
239	0xbd2af01e	-0.0417329
240	0x3cdc6f2e	0.026908483
241	0xbd881e21	-0.06646372
242	0x3dfd1402	0.12357332
243	0x3e376ae1	0.17911865
244	0xbe42ee03	-0.19036107
245	0xbd90894b	-0.070574366
246	0xbbea3572	-0.0071474845
247	0xbe6a147e	-0.2285938
248	0xbd3d7034	-0.046249583
249	0x3e0f661f	0.140038
250	0x3dca12a8	0.0986684
251	0xbd915b5a	-0.07097502
252	0x3d3c5cbf	0.045986887
253	0xbda28116	-0.079347774
254	0x3e212fb7	0.15740858
255	0x3d1077d0	0.035270512
